<?xml version="1.0"?>
<net name="Model1590" version="11">
	<layers>
		<layer id="2" name="input_ids" type="Parameter" version="opset1">
			<data shape="?,?" element_type="i64" />
			<output>
				<port id="0" precision="I64" names="input_ids">
					<dim>-1</dim>
					<dim>-1</dim>
				</port>
			</output>
		</layer>
		<layer id="1" name="attention_mask" type="Parameter" version="opset1">
			<data shape="?,?" element_type="i64" />
			<output>
				<port id="0" precision="I64" names="attention_mask">
					<dim>-1</dim>
					<dim>-1</dim>
				</port>
			</output>
		</layer>
		<layer id="0" name="token_type_ids" type="Parameter" version="opset1">
			<data shape="?,?" element_type="i64" />
			<output>
				<port id="0" precision="I64" names="token_type_ids">
					<dim>-1</dim>
					<dim>-1</dim>
				</port>
			</output>
		</layer>
		<layer id="3" name="Constant_3348727" type="Const" version="opset1">
			<data element_type="i8" shape="30522, 384" offset="0" size="11720448" />
			<output>
				<port id="0" precision="I8">
					<dim>30522</dim>
					<dim>384</dim>
				</port>
			</output>
		</layer>
		<layer id="4" name="Convert_3348728" type="Convert" version="opset1">
			<data destination_type="f32" />
			<input>
				<port id="0" precision="I8">
					<dim>30522</dim>
					<dim>384</dim>
				</port>
			</input>
			<output>
				<port id="1" precision="FP32">
					<dim>30522</dim>
					<dim>384</dim>
				</port>
			</output>
		</layer>
		<layer id="5" name="Constant_3348729" type="Const" version="opset1">
			<data element_type="f32" shape="30522, 1" offset="11720448" size="122088" />
			<output>
				<port id="0" precision="FP32">
					<dim>30522</dim>
					<dim>1</dim>
				</port>
			</output>
		</layer>
		<layer id="6" name="__module.embeddings.word_embeddings/aten::embedding/Gather/fq_weights_0" type="Multiply" version="opset1">
			<data auto_broadcast="numpy" />
			<input>
				<port id="0" precision="FP32">
					<dim>30522</dim>
					<dim>384</dim>
				</port>
				<port id="1" precision="FP32">
					<dim>30522</dim>
					<dim>1</dim>
				</port>
			</input>
			<output>
				<port id="2" precision="FP32">
					<dim>30522</dim>
					<dim>384</dim>
				</port>
			</output>
		</layer>
		<layer id="7" name="__module.embeddings.word_embeddings/aten::embedding/Convert" type="Convert" version="opset1">
			<data destination_type="i32" />
			<input>
				<port id="0" precision="I64">
					<dim>-1</dim>
					<dim>-1</dim>
				</port>
			</input>
			<output>
				<port id="1" precision="I32">
					<dim>-1</dim>
					<dim>-1</dim>
				</port>
			</output>
		</layer>
		<layer id="8" name="__module.embeddings.word_embeddings/aten::embedding/Constant" type="Const" version="opset1">
			<data element_type="i32" shape="" offset="11842536" size="4" />
			<output>
				<port id="0" precision="I32" />
			</output>
		</layer>
		<layer id="9" name="__module.embeddings.word_embeddings/aten::embedding/Gather" type="Gather" version="opset8">
			<data batch_dims="0" />
			<input>
				<port id="0" precision="FP32">
					<dim>30522</dim>
					<dim>384</dim>
				</port>
				<port id="1" precision="I32">
					<dim>-1</dim>
					<dim>-1</dim>
				</port>
				<port id="2" precision="I32" />
			</input>
			<output>
				<port id="3" precision="FP32" names="79,inputs_embeds">
					<dim>-1</dim>
					<dim>-1</dim>
					<dim>384</dim>
				</port>
			</output>
		</layer>
		<layer id="10" name="Constant_3348731" type="Const" version="opset1">
			<data element_type="i8" shape="2, 384" offset="11842540" size="768" />
			<output>
				<port id="0" precision="I8">
					<dim>2</dim>
					<dim>384</dim>
				</port>
			</output>
		</layer>
		<layer id="11" name="Convert_3348732" type="Convert" version="opset1">
			<data destination_type="f32" />
			<input>
				<port id="0" precision="I8">
					<dim>2</dim>
					<dim>384</dim>
				</port>
			</input>
			<output>
				<port id="1" precision="FP32">
					<dim>2</dim>
					<dim>384</dim>
				</port>
			</output>
		</layer>
		<layer id="12" name="Constant_3348733" type="Const" version="opset1">
			<data element_type="f32" shape="2, 1" offset="11843308" size="8" />
			<output>
				<port id="0" precision="FP32">
					<dim>2</dim>
					<dim>1</dim>
				</port>
			</output>
		</layer>
		<layer id="13" name="__module.embeddings.token_type_embeddings/aten::embedding/Gather/fq_weights_0" type="Multiply" version="opset1">
			<data auto_broadcast="numpy" />
			<input>
				<port id="0" precision="FP32">
					<dim>2</dim>
					<dim>384</dim>
				</port>
				<port id="1" precision="FP32">
					<dim>2</dim>
					<dim>1</dim>
				</port>
			</input>
			<output>
				<port id="2" precision="FP32">
					<dim>2</dim>
					<dim>384</dim>
				</port>
			</output>
		</layer>
		<layer id="14" name="__module.embeddings.token_type_embeddings/aten::embedding/Convert" type="Convert" version="opset1">
			<data destination_type="i32" />
			<input>
				<port id="0" precision="I64">
					<dim>-1</dim>
					<dim>-1</dim>
				</port>
			</input>
			<output>
				<port id="1" precision="I32">
					<dim>-1</dim>
					<dim>-1</dim>
				</port>
			</output>
		</layer>
		<layer id="15" name="__module.embeddings.token_type_embeddings/aten::embedding/Constant" type="Const" version="opset1">
			<data element_type="i32" shape="" offset="11842536" size="4" />
			<output>
				<port id="0" precision="I32" />
			</output>
		</layer>
		<layer id="16" name="__module.embeddings.token_type_embeddings/aten::embedding/Gather" type="Gather" version="opset8">
			<data batch_dims="0" />
			<input>
				<port id="0" precision="FP32">
					<dim>2</dim>
					<dim>384</dim>
				</port>
				<port id="1" precision="I32">
					<dim>-1</dim>
					<dim>-1</dim>
				</port>
				<port id="2" precision="I32" />
			</input>
			<output>
				<port id="3" precision="FP32" names="81,token_type_embeddings.1">
					<dim>-1</dim>
					<dim>-1</dim>
					<dim>384</dim>
				</port>
			</output>
		</layer>
		<layer id="17" name="__module.embeddings/aten::add/Add" type="Add" version="opset1">
			<data auto_broadcast="numpy" />
			<input>
				<port id="0" precision="FP32">
					<dim>-1</dim>
					<dim>-1</dim>
					<dim>384</dim>
				</port>
				<port id="1" precision="FP32">
					<dim>-1</dim>
					<dim>-1</dim>
					<dim>384</dim>
				</port>
			</input>
			<output>
				<port id="2" precision="FP32" names="82_1">
					<dim>-1</dim>
					<dim>-1</dim>
					<dim>384</dim>
				</port>
			</output>
		</layer>
		<layer id="18" name="Constant_3348735" type="Const" version="opset1">
			<data element_type="i8" shape="512, 384" offset="11843316" size="196608" />
			<output>
				<port id="0" precision="I8">
					<dim>512</dim>
					<dim>384</dim>
				</port>
			</output>
		</layer>
		<layer id="19" name="Convert_3348736" type="Convert" version="opset1">
			<data destination_type="f32" />
			<input>
				<port id="0" precision="I8">
					<dim>512</dim>
					<dim>384</dim>
				</port>
			</input>
			<output>
				<port id="1" precision="FP32">
					<dim>512</dim>
					<dim>384</dim>
				</port>
			</output>
		</layer>
		<layer id="20" name="Constant_3348737" type="Const" version="opset1">
			<data element_type="f32" shape="512, 1" offset="12039924" size="2048" />
			<output>
				<port id="0" precision="FP32">
					<dim>512</dim>
					<dim>1</dim>
				</port>
			</output>
		</layer>
		<layer id="21" name="__module.embeddings.position_embeddings/aten::embedding/Gather/fq_weights_0" type="Multiply" version="opset1">
			<data auto_broadcast="numpy" />
			<input>
				<port id="0" precision="FP32">
					<dim>512</dim>
					<dim>384</dim>
				</port>
				<port id="1" precision="FP32">
					<dim>512</dim>
					<dim>1</dim>
				</port>
			</input>
			<output>
				<port id="2" precision="FP32">
					<dim>512</dim>
					<dim>384</dim>
				</port>
			</output>
		</layer>
		<layer id="22" name="__module.embeddings/aten::slice/Slice" type="Const" version="opset1">
			<data element_type="i64" shape="1, 512" offset="12041972" size="4096" />
			<output>
				<port id="0" precision="I64" names="76">
					<dim>1</dim>
					<dim>512</dim>
				</port>
			</output>
		</layer>
		<layer id="23" name="__module.embeddings/aten::slice/Reshape" type="Const" version="opset1">
			<data element_type="i64" shape="1" offset="12046068" size="8" />
			<output>
				<port id="0" precision="I64">
					<dim>1</dim>
				</port>
			</output>
		</layer>
		<layer id="24" name="ShapeOf_573736" type="ShapeOf" version="opset3">
			<data output_type="i64" />
			<input>
				<port id="0" precision="I64">
					<dim>-1</dim>
					<dim>-1</dim>
				</port>
			</input>
			<output>
				<port id="1" precision="I64">
					<dim>2</dim>
				</port>
			</output>
		</layer>
		<layer id="25" name="Constant_573857" type="Const" version="opset1">
			<data element_type="i64" shape="1" offset="12046076" size="8" />
			<output>
				<port id="0" precision="I64">
					<dim>1</dim>
				</port>
			</output>
		</layer>
		<layer id="26" name="Constant_573738" type="Const" version="opset1">
			<data element_type="i64" shape="" offset="12046068" size="8" />
			<output>
				<port id="0" precision="I64" />
			</output>
		</layer>
		<layer id="27" name="Gather_573739" type="Gather" version="opset8">
			<data batch_dims="0" />
			<input>
				<port id="0" precision="I64">
					<dim>2</dim>
				</port>
				<port id="1" precision="I64">
					<dim>1</dim>
				</port>
				<port id="2" precision="I64" />
			</input>
			<output>
				<port id="3" precision="I64" names="10,72,74,75,8">
					<dim>1</dim>
				</port>
			</output>
		</layer>
		<layer id="28" name="__module.embeddings/aten::slice/Reshape_2" type="Const" version="opset1">
			<data element_type="i64" shape="1" offset="12046076" size="8" />
			<output>
				<port id="0" precision="I64">
					<dim>1</dim>
				</port>
			</output>
		</layer>
		<layer id="29" name="__module.embeddings/aten::slice/Reshape_3" type="Const" version="opset1">
			<data element_type="i64" shape="1" offset="12046076" size="8" />
			<output>
				<port id="0" precision="I64">
					<dim>1</dim>
				</port>
			</output>
		</layer>
		<layer id="30" name="__module.embeddings/aten::slice/Slice_1" type="Slice" version="opset8">
			<input>
				<port id="0" precision="I64">
					<dim>1</dim>
					<dim>512</dim>
				</port>
				<port id="1" precision="I64">
					<dim>1</dim>
				</port>
				<port id="2" precision="I64">
					<dim>1</dim>
				</port>
				<port id="3" precision="I64">
					<dim>1</dim>
				</port>
				<port id="4" precision="I64">
					<dim>1</dim>
				</port>
			</input>
			<output>
				<port id="5" precision="I64" names="77">
					<dim>1</dim>
					<dim>-1</dim>
				</port>
			</output>
		</layer>
		<layer id="31" name="__module.embeddings.position_embeddings/aten::embedding/Convert" type="Convert" version="opset1">
			<data destination_type="i32" />
			<input>
				<port id="0" precision="I64">
					<dim>1</dim>
					<dim>-1</dim>
				</port>
			</input>
			<output>
				<port id="1" precision="I32">
					<dim>1</dim>
					<dim>-1</dim>
				</port>
			</output>
		</layer>
		<layer id="32" name="__module.embeddings.position_embeddings/aten::embedding/Constant" type="Const" version="opset1">
			<data element_type="i32" shape="" offset="11842536" size="4" />
			<output>
				<port id="0" precision="I32" />
			</output>
		</layer>
		<layer id="33" name="__module.embeddings.position_embeddings/aten::embedding/Gather" type="Gather" version="opset8">
			<data batch_dims="0" />
			<input>
				<port id="0" precision="FP32">
					<dim>512</dim>
					<dim>384</dim>
				</port>
				<port id="1" precision="I32">
					<dim>1</dim>
					<dim>-1</dim>
				</port>
				<port id="2" precision="I32" />
			</input>
			<output>
				<port id="3" precision="FP32" names="84,position_embeddings.1">
					<dim>1</dim>
					<dim>-1</dim>
					<dim>384</dim>
				</port>
			</output>
		</layer>
		<layer id="34" name="__module.embeddings/aten::add_/Add" type="Add" version="opset1">
			<data auto_broadcast="numpy" />
			<input>
				<port id="0" precision="FP32">
					<dim>-1</dim>
					<dim>-1</dim>
					<dim>384</dim>
				</port>
				<port id="1" precision="FP32">
					<dim>1</dim>
					<dim>-1</dim>
					<dim>384</dim>
				</port>
			</input>
			<output>
				<port id="2" precision="FP32" names="82,embeddings.1">
					<dim>-1</dim>
					<dim>-1</dim>
					<dim>384</dim>
				</port>
			</output>
		</layer>
		<layer id="35" name="__module.embeddings.LayerNorm/aten::layer_norm/Multiply" type="Const" version="opset1">
			<data element_type="i32" shape="1" offset="12046084" size="4" />
			<output>
				<port id="0" precision="I32">
					<dim>1</dim>
				</port>
			</output>
		</layer>
		<layer id="36" name="__module.embeddings.LayerNorm/aten::layer_norm/MVN" type="MVN" version="opset6">
			<data eps="9.999999960041972e-13" normalize_variance="true" eps_mode="INSIDE_SQRT" />
			<input>
				<port id="0" precision="FP32">
					<dim>-1</dim>
					<dim>-1</dim>
					<dim>384</dim>
				</port>
				<port id="1" precision="I32">
					<dim>1</dim>
				</port>
			</input>
			<output>
				<port id="2" precision="FP32">
					<dim>-1</dim>
					<dim>-1</dim>
					<dim>384</dim>
				</port>
			</output>
		</layer>
		<layer id="37" name="Constant_573509" type="Const" version="opset1">
			<data element_type="f32" shape="1, 1, 384" offset="12046088" size="1536" />
			<output>
				<port id="0" precision="FP32">
					<dim>1</dim>
					<dim>1</dim>
					<dim>384</dim>
				</port>
			</output>
		</layer>
		<layer id="38" name="__module.embeddings.LayerNorm/aten::layer_norm/Multiply_1" type="Multiply" version="opset1">
			<data auto_broadcast="numpy" />
			<input>
				<port id="0" precision="FP32">
					<dim>-1</dim>
					<dim>-1</dim>
					<dim>384</dim>
				</port>
				<port id="1" precision="FP32">
					<dim>1</dim>
					<dim>1</dim>
					<dim>384</dim>
				</port>
			</input>
			<output>
				<port id="2" precision="FP32">
					<dim>-1</dim>
					<dim>-1</dim>
					<dim>384</dim>
				</port>
			</output>
		</layer>
		<layer id="39" name="Constant_573510" type="Const" version="opset1">
			<data element_type="f32" shape="1, 1, 384" offset="12047624" size="1536" />
			<output>
				<port id="0" precision="FP32">
					<dim>1</dim>
					<dim>1</dim>
					<dim>384</dim>
				</port>
			</output>
		</layer>
		<layer id="40" name="__module.embeddings.LayerNorm/aten::layer_norm/Add" type="Add" version="opset1">
			<data auto_broadcast="numpy" />
			<input>
				<port id="0" precision="FP32">
					<dim>-1</dim>
					<dim>-1</dim>
					<dim>384</dim>
				</port>
				<port id="1" precision="FP32">
					<dim>1</dim>
					<dim>1</dim>
					<dim>384</dim>
				</port>
			</input>
			<output>
				<port id="2" precision="FP32" names="89,input.1">
					<dim>-1</dim>
					<dim>-1</dim>
					<dim>384</dim>
				</port>
			</output>
		</layer>
		<layer id="41" name="__module.embeddings.LayerNorm/aten::layer_norm/Add_0_0/nncf_smooth_quant/scale" type="Const" version="opset1">
			<data element_type="f32" shape="1, 1, 384" offset="12049160" size="1536" />
			<output>
				<port id="0" precision="FP32">
					<dim>1</dim>
					<dim>1</dim>
					<dim>384</dim>
				</port>
			</output>
		</layer>
		<layer id="42" name="__module.embeddings.LayerNorm/aten::layer_norm/Add_0_0/nncf_smooth_quant" type="Multiply" version="opset1">
			<data auto_broadcast="numpy" />
			<input>
				<port id="0" precision="FP32">
					<dim>-1</dim>
					<dim>-1</dim>
					<dim>384</dim>
				</port>
				<port id="1" precision="FP32">
					<dim>1</dim>
					<dim>1</dim>
					<dim>384</dim>
				</port>
			</input>
			<output>
				<port id="2" precision="FP32">
					<dim>-1</dim>
					<dim>-1</dim>
					<dim>384</dim>
				</port>
			</output>
		</layer>
		<layer id="43" name="__module.embeddings.LayerNorm/aten::layer_norm/Add_0_0/nncf_smooth_quant/fq_output_0/input_low" type="Const" version="opset1">
			<data element_type="f32" shape="" offset="12050696" size="4" />
			<output>
				<port id="0" precision="FP32" />
			</output>
		</layer>
		<layer id="44" name="__module.embeddings.LayerNorm/aten::layer_norm/Add_0_0/nncf_smooth_quant/fq_output_0/input_high" type="Const" version="opset1">
			<data element_type="f32" shape="" offset="12050700" size="4" />
			<output>
				<port id="0" precision="FP32" />
			</output>
		</layer>
		<layer id="45" name="__module.embeddings.LayerNorm/aten::layer_norm/Add_0_0/nncf_smooth_quant/fq_output_0/output_low" type="Const" version="opset1">
			<data element_type="f32" shape="" offset="12050696" size="4" />
			<output>
				<port id="0" precision="FP32" />
			</output>
		</layer>
		<layer id="46" name="__module.embeddings.LayerNorm/aten::layer_norm/Add_0_0/nncf_smooth_quant/fq_output_0/output_high" type="Const" version="opset1">
			<data element_type="f32" shape="" offset="12050700" size="4" />
			<output>
				<port id="0" precision="FP32" />
			</output>
		</layer>
		<layer id="47" name="__module.embeddings.LayerNorm/aten::layer_norm/Add_0_0/nncf_smooth_quant/fq_output_0" type="FakeQuantize" version="opset1">
			<data levels="256" auto_broadcast="numpy" />
			<input>
				<port id="0" precision="FP32">
					<dim>-1</dim>
					<dim>-1</dim>
					<dim>384</dim>
				</port>
				<port id="1" precision="FP32" />
				<port id="2" precision="FP32" />
				<port id="3" precision="FP32" />
				<port id="4" precision="FP32" />
			</input>
			<output>
				<port id="5" precision="FP32">
					<dim>-1</dim>
					<dim>-1</dim>
					<dim>384</dim>
				</port>
			</output>
		</layer>
		<layer id="48" name="Constant_3348739" type="Const" version="opset1">
			<data element_type="i8" shape="384, 384" offset="12050704" size="147456" />
			<output>
				<port id="0" precision="I8">
					<dim>384</dim>
					<dim>384</dim>
				</port>
			</output>
		</layer>
		<layer id="49" name="Convert_3348740" type="Convert" version="opset1">
			<data destination_type="f32" />
			<input>
				<port id="0" precision="I8">
					<dim>384</dim>
					<dim>384</dim>
				</port>
			</input>
			<output>
				<port id="1" precision="FP32">
					<dim>384</dim>
					<dim>384</dim>
				</port>
			</output>
		</layer>
		<layer id="50" name="Constant_3348741" type="Const" version="opset1">
			<data element_type="f32" shape="384, 1" offset="12198160" size="1536" />
			<output>
				<port id="0" precision="FP32">
					<dim>384</dim>
					<dim>1</dim>
				</port>
			</output>
		</layer>
		<layer id="51" name="__module.encoder.layer.0.attention.self.query/aten::linear/MatMul/fq_weights_1" type="Multiply" version="opset1">
			<data auto_broadcast="numpy" />
			<input>
				<port id="0" precision="FP32">
					<dim>384</dim>
					<dim>384</dim>
				</port>
				<port id="1" precision="FP32">
					<dim>384</dim>
					<dim>1</dim>
				</port>
			</input>
			<output>
				<port id="2" precision="FP32">
					<dim>384</dim>
					<dim>384</dim>
				</port>
			</output>
		</layer>
		<layer id="52" name="__module.encoder.layer.0.attention.self.query/aten::linear/MatMul" type="MatMul" version="opset1">
			<data transpose_a="false" transpose_b="true" />
			<input>
				<port id="0" precision="FP32">
					<dim>-1</dim>
					<dim>-1</dim>
					<dim>384</dim>
				</port>
				<port id="1" precision="FP32">
					<dim>384</dim>
					<dim>384</dim>
				</port>
			</input>
			<output>
				<port id="2" precision="FP32">
					<dim>-1</dim>
					<dim>-1</dim>
					<dim>384</dim>
				</port>
			</output>
		</layer>
		<layer id="53" name="Constant_573511" type="Const" version="opset1">
			<data element_type="f32" shape="1, 1, 384" offset="12199696" size="1536" />
			<output>
				<port id="0" precision="FP32">
					<dim>1</dim>
					<dim>1</dim>
					<dim>384</dim>
				</port>
			</output>
		</layer>
		<layer id="54" name="__module.encoder.layer.0.attention.self.query/aten::linear/Add" type="Add" version="opset1">
			<data auto_broadcast="numpy" />
			<input>
				<port id="0" precision="FP32">
					<dim>-1</dim>
					<dim>-1</dim>
					<dim>384</dim>
				</port>
				<port id="1" precision="FP32">
					<dim>1</dim>
					<dim>1</dim>
					<dim>384</dim>
				</port>
			</input>
			<output>
				<port id="2" precision="FP32" names="141,x.1">
					<dim>-1</dim>
					<dim>-1</dim>
					<dim>384</dim>
				</port>
			</output>
		</layer>
		<layer id="55" name="__module.encoder.layer.0.attention.self.query/aten::linear/Add/fq_output_0/input_low" type="Const" version="opset1">
			<data element_type="f32" shape="" offset="12201232" size="4" />
			<output>
				<port id="0" precision="FP32" />
			</output>
		</layer>
		<layer id="56" name="__module.encoder.layer.0.attention.self.query/aten::linear/Add/fq_output_0/input_high" type="Const" version="opset1">
			<data element_type="f32" shape="" offset="12201236" size="4" />
			<output>
				<port id="0" precision="FP32" />
			</output>
		</layer>
		<layer id="57" name="__module.encoder.layer.0.attention.self.query/aten::linear/Add/fq_output_0/output_low" type="Const" version="opset1">
			<data element_type="f32" shape="" offset="12201232" size="4" />
			<output>
				<port id="0" precision="FP32" />
			</output>
		</layer>
		<layer id="58" name="__module.encoder.layer.0.attention.self.query/aten::linear/Add/fq_output_0/output_high" type="Const" version="opset1">
			<data element_type="f32" shape="" offset="12201236" size="4" />
			<output>
				<port id="0" precision="FP32" />
			</output>
		</layer>
		<layer id="59" name="__module.encoder.layer.0.attention.self.query/aten::linear/Add/fq_output_0" type="FakeQuantize" version="opset1">
			<data levels="256" auto_broadcast="numpy" />
			<input>
				<port id="0" precision="FP32">
					<dim>-1</dim>
					<dim>-1</dim>
					<dim>384</dim>
				</port>
				<port id="1" precision="FP32" />
				<port id="2" precision="FP32" />
				<port id="3" precision="FP32" />
				<port id="4" precision="FP32" />
			</input>
			<output>
				<port id="5" precision="FP32">
					<dim>-1</dim>
					<dim>-1</dim>
					<dim>384</dim>
				</port>
			</output>
		</layer>
		<layer id="60" name="__module.encoder.layer.0.attention.self/prim::ListConstruct/Concat" type="Const" version="opset1">
			<data element_type="i64" shape="4" offset="12201240" size="32" />
			<output>
				<port id="0" precision="I64">
					<dim>4</dim>
				</port>
			</output>
		</layer>
		<layer id="61" name="__module.encoder.layer.0.attention.self/aten::view/Reshape" type="Reshape" version="opset1">
			<data special_zero="true" />
			<input>
				<port id="0" precision="FP32">
					<dim>-1</dim>
					<dim>-1</dim>
					<dim>384</dim>
				</port>
				<port id="1" precision="I64">
					<dim>4</dim>
				</port>
			</input>
			<output>
				<port id="2" precision="FP32" names="145,x.3">
					<dim>-1</dim>
					<dim>-1</dim>
					<dim>12</dim>
					<dim>32</dim>
				</port>
			</output>
		</layer>
		<layer id="62" name="Constant_564388" type="Const" version="opset1">
			<data element_type="i64" shape="4" offset="12201272" size="32" />
			<output>
				<port id="0" precision="I64" names="146">
					<dim>4</dim>
				</port>
			</output>
		</layer>
		<layer id="63" name="__module.encoder.layer.0.attention.self/aten::permute/Transpose" type="Transpose" version="opset1">
			<input>
				<port id="0" precision="FP32">
					<dim>-1</dim>
					<dim>-1</dim>
					<dim>12</dim>
					<dim>32</dim>
				</port>
				<port id="1" precision="I64">
					<dim>4</dim>
				</port>
			</input>
			<output>
				<port id="2" precision="FP32" names="147">
					<dim>-1</dim>
					<dim>12</dim>
					<dim>-1</dim>
					<dim>32</dim>
				</port>
			</output>
		</layer>
		<layer id="64" name="Constant_3348743" type="Const" version="opset1">
			<data element_type="i8" shape="384, 384" offset="12201304" size="147456" />
			<output>
				<port id="0" precision="I8">
					<dim>384</dim>
					<dim>384</dim>
				</port>
			</output>
		</layer>
		<layer id="65" name="Convert_3348744" type="Convert" version="opset1">
			<data destination_type="f32" />
			<input>
				<port id="0" precision="I8">
					<dim>384</dim>
					<dim>384</dim>
				</port>
			</input>
			<output>
				<port id="1" precision="FP32">
					<dim>384</dim>
					<dim>384</dim>
				</port>
			</output>
		</layer>
		<layer id="66" name="Constant_3348745" type="Const" version="opset1">
			<data element_type="f32" shape="384, 1" offset="12348760" size="1536" />
			<output>
				<port id="0" precision="FP32">
					<dim>384</dim>
					<dim>1</dim>
				</port>
			</output>
		</layer>
		<layer id="67" name="__module.encoder.layer.0.attention.self.key/aten::linear/MatMul/fq_weights_1" type="Multiply" version="opset1">
			<data auto_broadcast="numpy" />
			<input>
				<port id="0" precision="FP32">
					<dim>384</dim>
					<dim>384</dim>
				</port>
				<port id="1" precision="FP32">
					<dim>384</dim>
					<dim>1</dim>
				</port>
			</input>
			<output>
				<port id="2" precision="FP32">
					<dim>384</dim>
					<dim>384</dim>
				</port>
			</output>
		</layer>
		<layer id="68" name="__module.encoder.layer.0.attention.self.key/aten::linear/MatMul" type="MatMul" version="opset1">
			<data transpose_a="false" transpose_b="true" />
			<input>
				<port id="0" precision="FP32">
					<dim>-1</dim>
					<dim>-1</dim>
					<dim>384</dim>
				</port>
				<port id="1" precision="FP32">
					<dim>384</dim>
					<dim>384</dim>
				</port>
			</input>
			<output>
				<port id="2" precision="FP32">
					<dim>-1</dim>
					<dim>-1</dim>
					<dim>384</dim>
				</port>
			</output>
		</layer>
		<layer id="69" name="Constant_573512" type="Const" version="opset1">
			<data element_type="f32" shape="1, 1, 384" offset="12350296" size="1536" />
			<output>
				<port id="0" precision="FP32">
					<dim>1</dim>
					<dim>1</dim>
					<dim>384</dim>
				</port>
			</output>
		</layer>
		<layer id="70" name="__module.encoder.layer.0.attention.self.key/aten::linear/Add" type="Add" version="opset1">
			<data auto_broadcast="numpy" />
			<input>
				<port id="0" precision="FP32">
					<dim>-1</dim>
					<dim>-1</dim>
					<dim>384</dim>
				</port>
				<port id="1" precision="FP32">
					<dim>1</dim>
					<dim>1</dim>
					<dim>384</dim>
				</port>
			</input>
			<output>
				<port id="2" precision="FP32" names="150,x.5">
					<dim>-1</dim>
					<dim>-1</dim>
					<dim>384</dim>
				</port>
			</output>
		</layer>
		<layer id="71" name="__module.encoder.layer.0.attention.self.key/aten::linear/Add/fq_output_0/input_low" type="Const" version="opset1">
			<data element_type="f32" shape="" offset="12351832" size="4" />
			<output>
				<port id="0" precision="FP32" />
			</output>
		</layer>
		<layer id="72" name="__module.encoder.layer.0.attention.self.key/aten::linear/Add/fq_output_0/input_high" type="Const" version="opset1">
			<data element_type="f32" shape="" offset="12351836" size="4" />
			<output>
				<port id="0" precision="FP32" />
			</output>
		</layer>
		<layer id="73" name="__module.encoder.layer.0.attention.self.key/aten::linear/Add/fq_output_0/output_low" type="Const" version="opset1">
			<data element_type="f32" shape="" offset="12351832" size="4" />
			<output>
				<port id="0" precision="FP32" />
			</output>
		</layer>
		<layer id="74" name="__module.encoder.layer.0.attention.self.key/aten::linear/Add/fq_output_0/output_high" type="Const" version="opset1">
			<data element_type="f32" shape="" offset="12351836" size="4" />
			<output>
				<port id="0" precision="FP32" />
			</output>
		</layer>
		<layer id="75" name="__module.encoder.layer.0.attention.self.key/aten::linear/Add/fq_output_0" type="FakeQuantize" version="opset1">
			<data levels="256" auto_broadcast="numpy" />
			<input>
				<port id="0" precision="FP32">
					<dim>-1</dim>
					<dim>-1</dim>
					<dim>384</dim>
				</port>
				<port id="1" precision="FP32" />
				<port id="2" precision="FP32" />
				<port id="3" precision="FP32" />
				<port id="4" precision="FP32" />
			</input>
			<output>
				<port id="5" precision="FP32">
					<dim>-1</dim>
					<dim>-1</dim>
					<dim>384</dim>
				</port>
			</output>
		</layer>
		<layer id="76" name="__module.encoder.layer.0.attention.self/prim::ListConstruct/Concat_1" type="Const" version="opset1">
			<data element_type="i64" shape="4" offset="12201240" size="32" />
			<output>
				<port id="0" precision="I64">
					<dim>4</dim>
				</port>
			</output>
		</layer>
		<layer id="77" name="__module.encoder.layer.0.attention.self/aten::view/Reshape_1" type="Reshape" version="opset1">
			<data special_zero="true" />
			<input>
				<port id="0" precision="FP32">
					<dim>-1</dim>
					<dim>-1</dim>
					<dim>384</dim>
				</port>
				<port id="1" precision="I64">
					<dim>4</dim>
				</port>
			</input>
			<output>
				<port id="2" precision="FP32" names="154,x.7">
					<dim>-1</dim>
					<dim>-1</dim>
					<dim>12</dim>
					<dim>32</dim>
				</port>
			</output>
		</layer>
		<layer id="78" name="Constant_564413" type="Const" version="opset1">
			<data element_type="i64" shape="4" offset="12201272" size="32" />
			<output>
				<port id="0" precision="I64" names="155">
					<dim>4</dim>
				</port>
			</output>
		</layer>
		<layer id="79" name="__module.encoder.layer.0.attention.self/aten::permute/Transpose_1" type="Transpose" version="opset1">
			<input>
				<port id="0" precision="FP32">
					<dim>-1</dim>
					<dim>-1</dim>
					<dim>12</dim>
					<dim>32</dim>
				</port>
				<port id="1" precision="I64">
					<dim>4</dim>
				</port>
			</input>
			<output>
				<port id="2" precision="FP32" names="156">
					<dim>-1</dim>
					<dim>12</dim>
					<dim>-1</dim>
					<dim>32</dim>
				</port>
			</output>
		</layer>
		<layer id="80" name="Constant_3348747" type="Const" version="opset1">
			<data element_type="i8" shape="384, 384" offset="12351840" size="147456" />
			<output>
				<port id="0" precision="I8">
					<dim>384</dim>
					<dim>384</dim>
				</port>
			</output>
		</layer>
		<layer id="81" name="Convert_3348748" type="Convert" version="opset1">
			<data destination_type="f32" />
			<input>
				<port id="0" precision="I8">
					<dim>384</dim>
					<dim>384</dim>
				</port>
			</input>
			<output>
				<port id="1" precision="FP32">
					<dim>384</dim>
					<dim>384</dim>
				</port>
			</output>
		</layer>
		<layer id="82" name="Constant_3348749" type="Const" version="opset1">
			<data element_type="f32" shape="384, 1" offset="12499296" size="1536" />
			<output>
				<port id="0" precision="FP32">
					<dim>384</dim>
					<dim>1</dim>
				</port>
			</output>
		</layer>
		<layer id="83" name="__module.encoder.layer.0.attention.self.value/aten::linear/MatMul/fq_weights_1" type="Multiply" version="opset1">
			<data auto_broadcast="numpy" />
			<input>
				<port id="0" precision="FP32">
					<dim>384</dim>
					<dim>384</dim>
				</port>
				<port id="1" precision="FP32">
					<dim>384</dim>
					<dim>1</dim>
				</port>
			</input>
			<output>
				<port id="2" precision="FP32">
					<dim>384</dim>
					<dim>384</dim>
				</port>
			</output>
		</layer>
		<layer id="84" name="__module.encoder.layer.0.attention.self.value/aten::linear/MatMul" type="MatMul" version="opset1">
			<data transpose_a="false" transpose_b="true" />
			<input>
				<port id="0" precision="FP32">
					<dim>-1</dim>
					<dim>-1</dim>
					<dim>384</dim>
				</port>
				<port id="1" precision="FP32">
					<dim>384</dim>
					<dim>384</dim>
				</port>
			</input>
			<output>
				<port id="2" precision="FP32">
					<dim>-1</dim>
					<dim>-1</dim>
					<dim>384</dim>
				</port>
			</output>
		</layer>
		<layer id="85" name="Constant_573513" type="Const" version="opset1">
			<data element_type="f32" shape="1, 1, 384" offset="12500832" size="1536" />
			<output>
				<port id="0" precision="FP32">
					<dim>1</dim>
					<dim>1</dim>
					<dim>384</dim>
				</port>
			</output>
		</layer>
		<layer id="86" name="__module.encoder.layer.0.attention.self.value/aten::linear/Add" type="Add" version="opset1">
			<data auto_broadcast="numpy" />
			<input>
				<port id="0" precision="FP32">
					<dim>-1</dim>
					<dim>-1</dim>
					<dim>384</dim>
				</port>
				<port id="1" precision="FP32">
					<dim>1</dim>
					<dim>1</dim>
					<dim>384</dim>
				</port>
			</input>
			<output>
				<port id="2" precision="FP32" names="159,x.9">
					<dim>-1</dim>
					<dim>-1</dim>
					<dim>384</dim>
				</port>
			</output>
		</layer>
		<layer id="87" name="__module.encoder.layer.0.attention.self/prim::ListConstruct/Concat_2" type="Const" version="opset1">
			<data element_type="i64" shape="4" offset="12201240" size="32" />
			<output>
				<port id="0" precision="I64">
					<dim>4</dim>
				</port>
			</output>
		</layer>
		<layer id="88" name="__module.encoder.layer.0.attention.self/aten::view/Reshape_2" type="Reshape" version="opset1">
			<data special_zero="true" />
			<input>
				<port id="0" precision="FP32">
					<dim>-1</dim>
					<dim>-1</dim>
					<dim>384</dim>
				</port>
				<port id="1" precision="I64">
					<dim>4</dim>
				</port>
			</input>
			<output>
				<port id="2" precision="FP32" names="163,x.11">
					<dim>-1</dim>
					<dim>-1</dim>
					<dim>12</dim>
					<dim>32</dim>
				</port>
			</output>
		</layer>
		<layer id="89" name="Constant_564438" type="Const" version="opset1">
			<data element_type="i64" shape="4" offset="12201272" size="32" />
			<output>
				<port id="0" precision="I64" names="164">
					<dim>4</dim>
				</port>
			</output>
		</layer>
		<layer id="90" name="__module.encoder.layer.0.attention.self/aten::permute/Transpose_2" type="Transpose" version="opset1">
			<input>
				<port id="0" precision="FP32">
					<dim>-1</dim>
					<dim>-1</dim>
					<dim>12</dim>
					<dim>32</dim>
				</port>
				<port id="1" precision="I64">
					<dim>4</dim>
				</port>
			</input>
			<output>
				<port id="2" precision="FP32" names="165">
					<dim>-1</dim>
					<dim>12</dim>
					<dim>-1</dim>
					<dim>32</dim>
				</port>
			</output>
		</layer>
		<layer id="91" name="Constant_573515" type="Const" version="opset1">
			<data element_type="f32" shape="1, 1, 1, 1" offset="12502368" size="4" />
			<output>
				<port id="0" precision="FP32">
					<dim>1</dim>
					<dim>1</dim>
					<dim>1</dim>
					<dim>1</dim>
				</port>
			</output>
		</layer>
		<layer id="92" name="25" type="Const" version="opset1">
			<data element_type="i64" shape="" offset="12046076" size="8" />
			<output>
				<port id="0" precision="I64" names="25" />
			</output>
		</layer>
		<layer id="93" name="aten::unsqueeze/Unsqueeze" type="Unsqueeze" version="opset1">
			<input>
				<port id="0" precision="I64">
					<dim>-1</dim>
					<dim>-1</dim>
				</port>
				<port id="1" precision="I64" />
			</input>
			<output>
				<port id="2" precision="I64" names="26">
					<dim>-1</dim>
					<dim>1</dim>
					<dim>-1</dim>
				</port>
			</output>
		</layer>
		<layer id="94" name="27" type="Const" version="opset1">
			<data element_type="i64" shape="" offset="12502372" size="8" />
			<output>
				<port id="0" precision="I64" names="27" />
			</output>
		</layer>
		<layer id="95" name="aten::unsqueeze/Unsqueeze_1" type="Unsqueeze" version="opset1">
			<input>
				<port id="0" precision="I64">
					<dim>-1</dim>
					<dim>1</dim>
					<dim>-1</dim>
				</port>
				<port id="1" precision="I64" />
			</input>
			<output>
				<port id="2" precision="I64" names="28,33">
					<dim>-1</dim>
					<dim>1</dim>
					<dim>1</dim>
					<dim>-1</dim>
				</port>
			</output>
		</layer>
		<layer id="96" name="ShapeOf_573744" type="ShapeOf" version="opset3">
			<data output_type="i64" />
			<input>
				<port id="0" precision="I64">
					<dim>-1</dim>
					<dim>-1</dim>
				</port>
			</input>
			<output>
				<port id="1" precision="I64">
					<dim>2</dim>
				</port>
			</output>
		</layer>
		<layer id="97" name="Constant_573860" type="Const" version="opset1">
			<data element_type="i64" shape="1" offset="12046068" size="8" />
			<output>
				<port id="0" precision="I64">
					<dim>1</dim>
				</port>
			</output>
		</layer>
		<layer id="98" name="Constant_573746" type="Const" version="opset1">
			<data element_type="i64" shape="" offset="12046068" size="8" />
			<output>
				<port id="0" precision="I64" />
			</output>
		</layer>
		<layer id="99" name="Gather_573747" type="Gather" version="opset8">
			<data batch_dims="0" />
			<input>
				<port id="0" precision="I64">
					<dim>2</dim>
				</port>
				<port id="1" precision="I64">
					<dim>1</dim>
				</port>
				<port id="2" precision="I64" />
			</input>
			<output>
				<port id="3" precision="I64" names="13,15">
					<dim>1</dim>
				</port>
			</output>
		</layer>
		<layer id="100" name="Constant_572133" type="Const" version="opset1">
			<data element_type="i64" shape="1" offset="12046076" size="8" />
			<output>
				<port id="0" precision="I64">
					<dim>1</dim>
				</port>
			</output>
		</layer>
		<layer id="101" name="Constant_573863" type="Const" version="opset1">
			<data element_type="i64" shape="1" offset="12046076" size="8" />
			<output>
				<port id="0" precision="I64">
					<dim>1</dim>
				</port>
			</output>
		</layer>
		<layer id="102" name="Constant_573754" type="Const" version="opset1">
			<data element_type="i64" shape="" offset="12046068" size="8" />
			<output>
				<port id="0" precision="I64" />
			</output>
		</layer>
		<layer id="103" name="Gather_573755" type="Gather" version="opset8">
			<data batch_dims="0" />
			<input>
				<port id="0" precision="I64">
					<dim>2</dim>
				</port>
				<port id="1" precision="I64">
					<dim>1</dim>
				</port>
				<port id="2" precision="I64" />
			</input>
			<output>
				<port id="3" precision="I64" names="17,19">
					<dim>1</dim>
				</port>
			</output>
		</layer>
		<layer id="104" name="prim::ListConstruct/Concat" type="Concat" version="opset1">
			<data axis="0" />
			<input>
				<port id="0" precision="I64">
					<dim>1</dim>
				</port>
				<port id="1" precision="I64">
					<dim>1</dim>
				</port>
				<port id="2" precision="I64">
					<dim>1</dim>
				</port>
				<port id="3" precision="I64">
					<dim>1</dim>
				</port>
			</input>
			<output>
				<port id="4" precision="I64" names="35">
					<dim>4</dim>
				</port>
			</output>
		</layer>
		<layer id="105" name="aten::expand/Broadcast" type="Broadcast" version="opset3">
			<data mode="bidirectional" />
			<input>
				<port id="0" precision="I64">
					<dim>-1</dim>
					<dim>1</dim>
					<dim>1</dim>
					<dim>-1</dim>
				</port>
				<port id="1" precision="I64">
					<dim>4</dim>
				</port>
			</input>
			<output>
				<port id="2" precision="I64" names="37">
					<dim>-1</dim>
					<dim>1</dim>
					<dim>-1</dim>
					<dim>-1</dim>
				</port>
			</output>
		</layer>
		<layer id="106" name="aten::to/Convert" type="Convert" version="opset1">
			<data destination_type="f32" />
			<input>
				<port id="0" precision="I64">
					<dim>-1</dim>
					<dim>1</dim>
					<dim>-1</dim>
					<dim>-1</dim>
				</port>
			</input>
			<output>
				<port id="1" precision="FP32" names="42">
					<dim>-1</dim>
					<dim>1</dim>
					<dim>-1</dim>
					<dim>-1</dim>
				</port>
			</output>
		</layer>
		<layer id="107" name="Constant_573514" type="Const" version="opset1">
			<data element_type="f32" shape="1, 1, 1, 1" offset="12502368" size="4" />
			<output>
				<port id="0" precision="FP32">
					<dim>1</dim>
					<dim>1</dim>
					<dim>1</dim>
					<dim>1</dim>
				</port>
			</output>
		</layer>
		<layer id="108" name="aten::rsub/Multiply" type="Multiply" version="opset1">
			<data auto_broadcast="numpy" />
			<input>
				<port id="0" precision="FP32">
					<dim>-1</dim>
					<dim>1</dim>
					<dim>-1</dim>
					<dim>-1</dim>
				</port>
				<port id="1" precision="FP32">
					<dim>1</dim>
					<dim>1</dim>
					<dim>1</dim>
					<dim>1</dim>
				</port>
			</input>
			<output>
				<port id="2" precision="FP32">
					<dim>-1</dim>
					<dim>1</dim>
					<dim>-1</dim>
					<dim>-1</dim>
				</port>
			</output>
		</layer>
		<layer id="109" name="aten::rsub/Subtract" type="Subtract" version="opset1">
			<data auto_broadcast="numpy" />
			<input>
				<port id="0" precision="FP32">
					<dim>1</dim>
					<dim>1</dim>
					<dim>1</dim>
					<dim>1</dim>
				</port>
				<port id="1" precision="FP32">
					<dim>-1</dim>
					<dim>1</dim>
					<dim>-1</dim>
					<dim>-1</dim>
				</port>
			</input>
			<output>
				<port id="2" precision="FP32" names="45,inverted_mask">
					<dim>-1</dim>
					<dim>1</dim>
					<dim>-1</dim>
					<dim>-1</dim>
				</port>
			</output>
		</layer>
		<layer id="110" name="aten::to/Convert_1" type="Convert" version="opset1">
			<data destination_type="boolean" />
			<input>
				<port id="0" precision="FP32">
					<dim>-1</dim>
					<dim>1</dim>
					<dim>-1</dim>
					<dim>-1</dim>
				</port>
			</input>
			<output>
				<port id="1" precision="BOOL" names="50">
					<dim>-1</dim>
					<dim>1</dim>
					<dim>-1</dim>
					<dim>-1</dim>
				</port>
			</output>
		</layer>
		<layer id="111" name="aten::masked_fill/ConvertLike" type="Const" version="opset1">
			<data element_type="f32" shape="" offset="12502380" size="4" />
			<output>
				<port id="0" precision="FP32" />
			</output>
		</layer>
		<layer id="112" name="aten::masked_fill/Select" type="Select" version="opset1">
			<data auto_broadcast="numpy" />
			<input>
				<port id="0" precision="BOOL">
					<dim>-1</dim>
					<dim>1</dim>
					<dim>-1</dim>
					<dim>-1</dim>
				</port>
				<port id="1" precision="FP32" />
				<port id="2" precision="FP32">
					<dim>-1</dim>
					<dim>1</dim>
					<dim>-1</dim>
					<dim>-1</dim>
				</port>
			</input>
			<output>
				<port id="3" precision="FP32" names="52">
					<dim>-1</dim>
					<dim>1</dim>
					<dim>-1</dim>
					<dim>-1</dim>
				</port>
			</output>
		</layer>
		<layer id="113" name="__module.encoder.layer.0.attention.self/aten::scaled_dot_product_attention/ScaledDotProductAttention" type="ScaledDotProductAttention" version="opset13">
			<data causal="false" />
			<input>
				<port id="0" precision="FP32">
					<dim>-1</dim>
					<dim>12</dim>
					<dim>-1</dim>
					<dim>32</dim>
				</port>
				<port id="1" precision="FP32">
					<dim>-1</dim>
					<dim>12</dim>
					<dim>-1</dim>
					<dim>32</dim>
				</port>
				<port id="2" precision="FP32">
					<dim>-1</dim>
					<dim>12</dim>
					<dim>-1</dim>
					<dim>32</dim>
				</port>
				<port id="3" precision="FP32">
					<dim>-1</dim>
					<dim>1</dim>
					<dim>-1</dim>
					<dim>-1</dim>
				</port>
			</input>
			<output>
				<port id="4" precision="FP32" names="166,attn_output.1">
					<dim>-1</dim>
					<dim>12</dim>
					<dim>-1</dim>
					<dim>32</dim>
				</port>
			</output>
		</layer>
		<layer id="114" name="__module.encoder.layer.0.attention.self/aten::transpose/ScatterElementsUpdate" type="Const" version="opset1">
			<data element_type="i32" shape="4" offset="12502384" size="16" />
			<output>
				<port id="0" precision="I32">
					<dim>4</dim>
				</port>
			</output>
		</layer>
		<layer id="115" name="__module.encoder.layer.0.attention.self/aten::transpose/Transpose" type="Transpose" version="opset1">
			<input>
				<port id="0" precision="FP32">
					<dim>-1</dim>
					<dim>12</dim>
					<dim>-1</dim>
					<dim>32</dim>
				</port>
				<port id="1" precision="I32">
					<dim>4</dim>
				</port>
			</input>
			<output>
				<port id="2" precision="FP32" names="167,attn_output.3">
					<dim>-1</dim>
					<dim>-1</dim>
					<dim>12</dim>
					<dim>32</dim>
				</port>
			</output>
		</layer>
		<layer id="116" name="__module.encoder.layer.0.attention.self/aten::size/ShapeOf_6" type="ShapeOf" version="opset3">
			<data output_type="i64" />
			<input>
				<port id="0" precision="FP32">
					<dim>-1</dim>
					<dim>-1</dim>
					<dim>384</dim>
				</port>
			</input>
			<output>
				<port id="1" precision="I64">
					<dim>3</dim>
				</port>
			</output>
		</layer>
		<layer id="117" name="Constant_572578" type="Const" version="opset1">
			<data element_type="i64" shape="2" offset="12502400" size="16" />
			<output>
				<port id="0" precision="I64">
					<dim>2</dim>
				</port>
			</output>
		</layer>
		<layer id="118" name="Constant_572579" type="Const" version="opset1">
			<data element_type="i64" shape="" offset="12046068" size="8" />
			<output>
				<port id="0" precision="I64" />
			</output>
		</layer>
		<layer id="119" name="Gather_572580" type="Gather" version="opset8">
			<data batch_dims="0" />
			<input>
				<port id="0" precision="I64">
					<dim>3</dim>
				</port>
				<port id="1" precision="I64">
					<dim>2</dim>
				</port>
				<port id="2" precision="I64" />
			</input>
			<output>
				<port id="3" precision="I64">
					<dim>2</dim>
				</port>
			</output>
		</layer>
		<layer id="120" name="__module.encoder.layer.0.attention.self/prim::ListConstruct/Reshape_1_3" type="Const" version="opset1">
			<data element_type="i64" shape="1" offset="12502416" size="8" />
			<output>
				<port id="0" precision="I64">
					<dim>1</dim>
				</port>
			</output>
		</layer>
		<layer id="121" name="__module.encoder.layer.0.attention.self/prim::ListConstruct/Concat_3" type="Concat" version="opset1">
			<data axis="0" />
			<input>
				<port id="0" precision="I64">
					<dim>2</dim>
				</port>
				<port id="1" precision="I64">
					<dim>1</dim>
				</port>
			</input>
			<output>
				<port id="2" precision="I64" names="168">
					<dim>3</dim>
				</port>
			</output>
		</layer>
		<layer id="122" name="__module.encoder.layer.0.attention.self/aten::reshape/Reshape" type="Reshape" version="opset1">
			<data special_zero="false" />
			<input>
				<port id="0" precision="FP32">
					<dim>-1</dim>
					<dim>-1</dim>
					<dim>12</dim>
					<dim>32</dim>
				</port>
				<port id="1" precision="I64">
					<dim>3</dim>
				</port>
			</input>
			<output>
				<port id="2" precision="FP32" names="169">
					<dim>-1</dim>
					<dim>-1</dim>
					<dim>384</dim>
				</port>
			</output>
		</layer>
		<layer id="123" name="__module.encoder.layer.0.attention.self/aten::reshape/Reshape_0_0/nncf_smooth_quant/scale" type="Const" version="opset1">
			<data element_type="f32" shape="1, 1, 384" offset="12502424" size="1536" />
			<output>
				<port id="0" precision="FP32">
					<dim>1</dim>
					<dim>1</dim>
					<dim>384</dim>
				</port>
			</output>
		</layer>
		<layer id="124" name="__module.encoder.layer.0.attention.self/aten::reshape/Reshape_0_0/nncf_smooth_quant" type="Multiply" version="opset1">
			<data auto_broadcast="numpy" />
			<input>
				<port id="0" precision="FP32">
					<dim>-1</dim>
					<dim>-1</dim>
					<dim>384</dim>
				</port>
				<port id="1" precision="FP32">
					<dim>1</dim>
					<dim>1</dim>
					<dim>384</dim>
				</port>
			</input>
			<output>
				<port id="2" precision="FP32">
					<dim>-1</dim>
					<dim>-1</dim>
					<dim>384</dim>
				</port>
			</output>
		</layer>
		<layer id="125" name="__module.encoder.layer.0.attention.self/aten::reshape/Reshape_0_0/nncf_smooth_quant/fq_output_0/input_low" type="Const" version="opset1">
			<data element_type="f32" shape="" offset="12503960" size="4" />
			<output>
				<port id="0" precision="FP32" />
			</output>
		</layer>
		<layer id="126" name="__module.encoder.layer.0.attention.self/aten::reshape/Reshape_0_0/nncf_smooth_quant/fq_output_0/input_high" type="Const" version="opset1">
			<data element_type="f32" shape="" offset="12503964" size="4" />
			<output>
				<port id="0" precision="FP32" />
			</output>
		</layer>
		<layer id="127" name="__module.encoder.layer.0.attention.self/aten::reshape/Reshape_0_0/nncf_smooth_quant/fq_output_0/output_low" type="Const" version="opset1">
			<data element_type="f32" shape="" offset="12503960" size="4" />
			<output>
				<port id="0" precision="FP32" />
			</output>
		</layer>
		<layer id="128" name="__module.encoder.layer.0.attention.self/aten::reshape/Reshape_0_0/nncf_smooth_quant/fq_output_0/output_high" type="Const" version="opset1">
			<data element_type="f32" shape="" offset="12503964" size="4" />
			<output>
				<port id="0" precision="FP32" />
			</output>
		</layer>
		<layer id="129" name="__module.encoder.layer.0.attention.self/aten::reshape/Reshape_0_0/nncf_smooth_quant/fq_output_0" type="FakeQuantize" version="opset1">
			<data levels="256" auto_broadcast="numpy" />
			<input>
				<port id="0" precision="FP32">
					<dim>-1</dim>
					<dim>-1</dim>
					<dim>384</dim>
				</port>
				<port id="1" precision="FP32" />
				<port id="2" precision="FP32" />
				<port id="3" precision="FP32" />
				<port id="4" precision="FP32" />
			</input>
			<output>
				<port id="5" precision="FP32">
					<dim>-1</dim>
					<dim>-1</dim>
					<dim>384</dim>
				</port>
			</output>
		</layer>
		<layer id="130" name="Constant_3348751" type="Const" version="opset1">
			<data element_type="i8" shape="384, 384" offset="12503968" size="147456" />
			<output>
				<port id="0" precision="I8">
					<dim>384</dim>
					<dim>384</dim>
				</port>
			</output>
		</layer>
		<layer id="131" name="Convert_3348752" type="Convert" version="opset1">
			<data destination_type="f32" />
			<input>
				<port id="0" precision="I8">
					<dim>384</dim>
					<dim>384</dim>
				</port>
			</input>
			<output>
				<port id="1" precision="FP32">
					<dim>384</dim>
					<dim>384</dim>
				</port>
			</output>
		</layer>
		<layer id="132" name="Constant_3348753" type="Const" version="opset1">
			<data element_type="f32" shape="384, 1" offset="12651424" size="1536" />
			<output>
				<port id="0" precision="FP32">
					<dim>384</dim>
					<dim>1</dim>
				</port>
			</output>
		</layer>
		<layer id="133" name="__module.encoder.layer.0.attention.output.dense/aten::linear/MatMul/fq_weights_1" type="Multiply" version="opset1">
			<data auto_broadcast="numpy" />
			<input>
				<port id="0" precision="FP32">
					<dim>384</dim>
					<dim>384</dim>
				</port>
				<port id="1" precision="FP32">
					<dim>384</dim>
					<dim>1</dim>
				</port>
			</input>
			<output>
				<port id="2" precision="FP32">
					<dim>384</dim>
					<dim>384</dim>
				</port>
			</output>
		</layer>
		<layer id="134" name="__module.encoder.layer.0.attention.output.dense/aten::linear/MatMul" type="MatMul" version="opset1">
			<data transpose_a="false" transpose_b="true" />
			<input>
				<port id="0" precision="FP32">
					<dim>-1</dim>
					<dim>-1</dim>
					<dim>384</dim>
				</port>
				<port id="1" precision="FP32">
					<dim>384</dim>
					<dim>384</dim>
				</port>
			</input>
			<output>
				<port id="2" precision="FP32">
					<dim>-1</dim>
					<dim>-1</dim>
					<dim>384</dim>
				</port>
			</output>
		</layer>
		<layer id="135" name="Constant_573516" type="Const" version="opset1">
			<data element_type="f32" shape="1, 1, 384" offset="12652960" size="1536" />
			<output>
				<port id="0" precision="FP32">
					<dim>1</dim>
					<dim>1</dim>
					<dim>384</dim>
				</port>
			</output>
		</layer>
		<layer id="136" name="__module.encoder.layer.0.attention.output.dense/aten::linear/Add" type="Add" version="opset1">
			<data auto_broadcast="numpy" />
			<input>
				<port id="0" precision="FP32">
					<dim>-1</dim>
					<dim>-1</dim>
					<dim>384</dim>
				</port>
				<port id="1" precision="FP32">
					<dim>1</dim>
					<dim>1</dim>
					<dim>384</dim>
				</port>
			</input>
			<output>
				<port id="2" precision="FP32" names="175,input.3">
					<dim>-1</dim>
					<dim>-1</dim>
					<dim>384</dim>
				</port>
			</output>
		</layer>
		<layer id="137" name="__module.encoder.layer.0.attention.output/aten::add/Add" type="Add" version="opset1">
			<data auto_broadcast="numpy" />
			<input>
				<port id="0" precision="FP32">
					<dim>-1</dim>
					<dim>-1</dim>
					<dim>384</dim>
				</port>
				<port id="1" precision="FP32">
					<dim>-1</dim>
					<dim>-1</dim>
					<dim>384</dim>
				</port>
			</input>
			<output>
				<port id="2" precision="FP32" names="177">
					<dim>-1</dim>
					<dim>-1</dim>
					<dim>384</dim>
				</port>
			</output>
		</layer>
		<layer id="138" name="__module.encoder.layer.0.attention.output.LayerNorm/aten::layer_norm/Multiply" type="Const" version="opset1">
			<data element_type="i32" shape="1" offset="12046084" size="4" />
			<output>
				<port id="0" precision="I32">
					<dim>1</dim>
				</port>
			</output>
		</layer>
		<layer id="139" name="__module.encoder.layer.0.attention.output.LayerNorm/aten::layer_norm/MVN" type="MVN" version="opset6">
			<data eps="9.999999960041972e-13" normalize_variance="true" eps_mode="INSIDE_SQRT" />
			<input>
				<port id="0" precision="FP32">
					<dim>-1</dim>
					<dim>-1</dim>
					<dim>384</dim>
				</port>
				<port id="1" precision="I32">
					<dim>1</dim>
				</port>
			</input>
			<output>
				<port id="2" precision="FP32">
					<dim>-1</dim>
					<dim>-1</dim>
					<dim>384</dim>
				</port>
			</output>
		</layer>
		<layer id="140" name="Constant_573517" type="Const" version="opset1">
			<data element_type="f32" shape="1, 1, 384" offset="12654496" size="1536" />
			<output>
				<port id="0" precision="FP32">
					<dim>1</dim>
					<dim>1</dim>
					<dim>384</dim>
				</port>
			</output>
		</layer>
		<layer id="141" name="__module.encoder.layer.0.attention.output.LayerNorm/aten::layer_norm/Multiply_1" type="Multiply" version="opset1">
			<data auto_broadcast="numpy" />
			<input>
				<port id="0" precision="FP32">
					<dim>-1</dim>
					<dim>-1</dim>
					<dim>384</dim>
				</port>
				<port id="1" precision="FP32">
					<dim>1</dim>
					<dim>1</dim>
					<dim>384</dim>
				</port>
			</input>
			<output>
				<port id="2" precision="FP32">
					<dim>-1</dim>
					<dim>-1</dim>
					<dim>384</dim>
				</port>
			</output>
		</layer>
		<layer id="142" name="Constant_573518" type="Const" version="opset1">
			<data element_type="f32" shape="1, 1, 384" offset="12656032" size="1536" />
			<output>
				<port id="0" precision="FP32">
					<dim>1</dim>
					<dim>1</dim>
					<dim>384</dim>
				</port>
			</output>
		</layer>
		<layer id="143" name="__module.encoder.layer.0.attention.output.LayerNorm/aten::layer_norm/Add" type="Add" version="opset1">
			<data auto_broadcast="numpy" />
			<input>
				<port id="0" precision="FP32">
					<dim>-1</dim>
					<dim>-1</dim>
					<dim>384</dim>
				</port>
				<port id="1" precision="FP32">
					<dim>1</dim>
					<dim>1</dim>
					<dim>384</dim>
				</port>
			</input>
			<output>
				<port id="2" precision="FP32" names="181,input_tensor.1">
					<dim>-1</dim>
					<dim>-1</dim>
					<dim>384</dim>
				</port>
			</output>
		</layer>
		<layer id="144" name="__module.encoder.layer.0.attention.output.LayerNorm/aten::layer_norm/Add_0_0/nncf_smooth_quant/scale" type="Const" version="opset1">
			<data element_type="f32" shape="1, 1, 384" offset="12657568" size="1536" />
			<output>
				<port id="0" precision="FP32">
					<dim>1</dim>
					<dim>1</dim>
					<dim>384</dim>
				</port>
			</output>
		</layer>
		<layer id="145" name="__module.encoder.layer.0.attention.output.LayerNorm/aten::layer_norm/Add_0_0/nncf_smooth_quant" type="Multiply" version="opset1">
			<data auto_broadcast="numpy" />
			<input>
				<port id="0" precision="FP32">
					<dim>-1</dim>
					<dim>-1</dim>
					<dim>384</dim>
				</port>
				<port id="1" precision="FP32">
					<dim>1</dim>
					<dim>1</dim>
					<dim>384</dim>
				</port>
			</input>
			<output>
				<port id="2" precision="FP32">
					<dim>-1</dim>
					<dim>-1</dim>
					<dim>384</dim>
				</port>
			</output>
		</layer>
		<layer id="146" name="__module.encoder.layer.0.attention.output.LayerNorm/aten::layer_norm/Add_0_0/nncf_smooth_quant/fq_output_0/input_low" type="Const" version="opset1">
			<data element_type="f32" shape="" offset="12659104" size="4" />
			<output>
				<port id="0" precision="FP32" />
			</output>
		</layer>
		<layer id="147" name="__module.encoder.layer.0.attention.output.LayerNorm/aten::layer_norm/Add_0_0/nncf_smooth_quant/fq_output_0/input_high" type="Const" version="opset1">
			<data element_type="f32" shape="" offset="12659108" size="4" />
			<output>
				<port id="0" precision="FP32" />
			</output>
		</layer>
		<layer id="148" name="__module.encoder.layer.0.attention.output.LayerNorm/aten::layer_norm/Add_0_0/nncf_smooth_quant/fq_output_0/output_low" type="Const" version="opset1">
			<data element_type="f32" shape="" offset="12659104" size="4" />
			<output>
				<port id="0" precision="FP32" />
			</output>
		</layer>
		<layer id="149" name="__module.encoder.layer.0.attention.output.LayerNorm/aten::layer_norm/Add_0_0/nncf_smooth_quant/fq_output_0/output_high" type="Const" version="opset1">
			<data element_type="f32" shape="" offset="12659108" size="4" />
			<output>
				<port id="0" precision="FP32" />
			</output>
		</layer>
		<layer id="150" name="__module.encoder.layer.0.attention.output.LayerNorm/aten::layer_norm/Add_0_0/nncf_smooth_quant/fq_output_0" type="FakeQuantize" version="opset1">
			<data levels="256" auto_broadcast="numpy" />
			<input>
				<port id="0" precision="FP32">
					<dim>-1</dim>
					<dim>-1</dim>
					<dim>384</dim>
				</port>
				<port id="1" precision="FP32" />
				<port id="2" precision="FP32" />
				<port id="3" precision="FP32" />
				<port id="4" precision="FP32" />
			</input>
			<output>
				<port id="5" precision="FP32">
					<dim>-1</dim>
					<dim>-1</dim>
					<dim>384</dim>
				</port>
			</output>
		</layer>
		<layer id="151" name="Constant_3348755" type="Const" version="opset1">
			<data element_type="i8" shape="1536, 384" offset="12659112" size="589824" />
			<output>
				<port id="0" precision="I8">
					<dim>1536</dim>
					<dim>384</dim>
				</port>
			</output>
		</layer>
		<layer id="152" name="Convert_3348756" type="Convert" version="opset1">
			<data destination_type="f32" />
			<input>
				<port id="0" precision="I8">
					<dim>1536</dim>
					<dim>384</dim>
				</port>
			</input>
			<output>
				<port id="1" precision="FP32">
					<dim>1536</dim>
					<dim>384</dim>
				</port>
			</output>
		</layer>
		<layer id="153" name="Constant_3348757" type="Const" version="opset1">
			<data element_type="f32" shape="1536, 1" offset="13248936" size="6144" />
			<output>
				<port id="0" precision="FP32">
					<dim>1536</dim>
					<dim>1</dim>
				</port>
			</output>
		</layer>
		<layer id="154" name="__module.encoder.layer.0.intermediate.dense/aten::linear/MatMul/fq_weights_1" type="Multiply" version="opset1">
			<data auto_broadcast="numpy" />
			<input>
				<port id="0" precision="FP32">
					<dim>1536</dim>
					<dim>384</dim>
				</port>
				<port id="1" precision="FP32">
					<dim>1536</dim>
					<dim>1</dim>
				</port>
			</input>
			<output>
				<port id="2" precision="FP32">
					<dim>1536</dim>
					<dim>384</dim>
				</port>
			</output>
		</layer>
		<layer id="155" name="__module.encoder.layer.0.intermediate.dense/aten::linear/MatMul" type="MatMul" version="opset1">
			<data transpose_a="false" transpose_b="true" />
			<input>
				<port id="0" precision="FP32">
					<dim>-1</dim>
					<dim>-1</dim>
					<dim>384</dim>
				</port>
				<port id="1" precision="FP32">
					<dim>1536</dim>
					<dim>384</dim>
				</port>
			</input>
			<output>
				<port id="2" precision="FP32">
					<dim>-1</dim>
					<dim>-1</dim>
					<dim>1536</dim>
				</port>
			</output>
		</layer>
		<layer id="156" name="Constant_573519" type="Const" version="opset1">
			<data element_type="f32" shape="1, 1, 1536" offset="13255080" size="6144" />
			<output>
				<port id="0" precision="FP32">
					<dim>1</dim>
					<dim>1</dim>
					<dim>1536</dim>
				</port>
			</output>
		</layer>
		<layer id="157" name="__module.encoder.layer.0.intermediate.dense/aten::linear/Add" type="Add" version="opset1">
			<data auto_broadcast="numpy" />
			<input>
				<port id="0" precision="FP32">
					<dim>-1</dim>
					<dim>-1</dim>
					<dim>1536</dim>
				</port>
				<port id="1" precision="FP32">
					<dim>1</dim>
					<dim>1</dim>
					<dim>1536</dim>
				</port>
			</input>
			<output>
				<port id="2" precision="FP32" names="186">
					<dim>-1</dim>
					<dim>-1</dim>
					<dim>1536</dim>
				</port>
			</output>
		</layer>
		<layer id="158" name="__module.encoder.layer.0.intermediate.intermediate_act_fn/aten::gelu/Gelu" type="Gelu" version="opset7">
			<data approximation_mode="ERF" />
			<input>
				<port id="0" precision="FP32">
					<dim>-1</dim>
					<dim>-1</dim>
					<dim>1536</dim>
				</port>
			</input>
			<output>
				<port id="1" precision="FP32" names="187">
					<dim>-1</dim>
					<dim>-1</dim>
					<dim>1536</dim>
				</port>
			</output>
		</layer>
		<layer id="159" name="__module.encoder.layer.0.intermediate.intermediate_act_fn/aten::gelu/Gelu_0_0/nncf_smooth_quant/scale" type="Const" version="opset1">
			<data element_type="f32" shape="1, 1, 1536" offset="13261224" size="6144" />
			<output>
				<port id="0" precision="FP32">
					<dim>1</dim>
					<dim>1</dim>
					<dim>1536</dim>
				</port>
			</output>
		</layer>
		<layer id="160" name="__module.encoder.layer.0.intermediate.intermediate_act_fn/aten::gelu/Gelu_0_0/nncf_smooth_quant" type="Multiply" version="opset1">
			<data auto_broadcast="numpy" />
			<input>
				<port id="0" precision="FP32">
					<dim>-1</dim>
					<dim>-1</dim>
					<dim>1536</dim>
				</port>
				<port id="1" precision="FP32">
					<dim>1</dim>
					<dim>1</dim>
					<dim>1536</dim>
				</port>
			</input>
			<output>
				<port id="2" precision="FP32">
					<dim>-1</dim>
					<dim>-1</dim>
					<dim>1536</dim>
				</port>
			</output>
		</layer>
		<layer id="161" name="__module.encoder.layer.0.intermediate.intermediate_act_fn/aten::gelu/Gelu_0_0/nncf_smooth_quant/fq_output_0/input_low" type="Const" version="opset1">
			<data element_type="f32" shape="" offset="13267368" size="4" />
			<output>
				<port id="0" precision="FP32" />
			</output>
		</layer>
		<layer id="162" name="__module.encoder.layer.0.intermediate.intermediate_act_fn/aten::gelu/Gelu_0_0/nncf_smooth_quant/fq_output_0/input_high" type="Const" version="opset1">
			<data element_type="f32" shape="" offset="13267372" size="4" />
			<output>
				<port id="0" precision="FP32" />
			</output>
		</layer>
		<layer id="163" name="__module.encoder.layer.0.intermediate.intermediate_act_fn/aten::gelu/Gelu_0_0/nncf_smooth_quant/fq_output_0/output_low" type="Const" version="opset1">
			<data element_type="f32" shape="" offset="13267368" size="4" />
			<output>
				<port id="0" precision="FP32" />
			</output>
		</layer>
		<layer id="164" name="__module.encoder.layer.0.intermediate.intermediate_act_fn/aten::gelu/Gelu_0_0/nncf_smooth_quant/fq_output_0/output_high" type="Const" version="opset1">
			<data element_type="f32" shape="" offset="13267372" size="4" />
			<output>
				<port id="0" precision="FP32" />
			</output>
		</layer>
		<layer id="165" name="__module.encoder.layer.0.intermediate.intermediate_act_fn/aten::gelu/Gelu_0_0/nncf_smooth_quant/fq_output_0" type="FakeQuantize" version="opset1">
			<data levels="256" auto_broadcast="numpy" />
			<input>
				<port id="0" precision="FP32">
					<dim>-1</dim>
					<dim>-1</dim>
					<dim>1536</dim>
				</port>
				<port id="1" precision="FP32" />
				<port id="2" precision="FP32" />
				<port id="3" precision="FP32" />
				<port id="4" precision="FP32" />
			</input>
			<output>
				<port id="5" precision="FP32">
					<dim>-1</dim>
					<dim>-1</dim>
					<dim>1536</dim>
				</port>
			</output>
		</layer>
		<layer id="166" name="Constant_3348759" type="Const" version="opset1">
			<data element_type="i8" shape="384, 1536" offset="13267376" size="589824" />
			<output>
				<port id="0" precision="I8">
					<dim>384</dim>
					<dim>1536</dim>
				</port>
			</output>
		</layer>
		<layer id="167" name="Convert_3348760" type="Convert" version="opset1">
			<data destination_type="f32" />
			<input>
				<port id="0" precision="I8">
					<dim>384</dim>
					<dim>1536</dim>
				</port>
			</input>
			<output>
				<port id="1" precision="FP32">
					<dim>384</dim>
					<dim>1536</dim>
				</port>
			</output>
		</layer>
		<layer id="168" name="Constant_3348761" type="Const" version="opset1">
			<data element_type="f32" shape="384, 1" offset="13857200" size="1536" />
			<output>
				<port id="0" precision="FP32">
					<dim>384</dim>
					<dim>1</dim>
				</port>
			</output>
		</layer>
		<layer id="169" name="__module.encoder.layer.0.output.dense/aten::linear/MatMul/fq_weights_1" type="Multiply" version="opset1">
			<data auto_broadcast="numpy" />
			<input>
				<port id="0" precision="FP32">
					<dim>384</dim>
					<dim>1536</dim>
				</port>
				<port id="1" precision="FP32">
					<dim>384</dim>
					<dim>1</dim>
				</port>
			</input>
			<output>
				<port id="2" precision="FP32">
					<dim>384</dim>
					<dim>1536</dim>
				</port>
			</output>
		</layer>
		<layer id="170" name="__module.encoder.layer.0.output.dense/aten::linear/MatMul" type="MatMul" version="opset1">
			<data transpose_a="false" transpose_b="true" />
			<input>
				<port id="0" precision="FP32">
					<dim>-1</dim>
					<dim>-1</dim>
					<dim>1536</dim>
				</port>
				<port id="1" precision="FP32">
					<dim>384</dim>
					<dim>1536</dim>
				</port>
			</input>
			<output>
				<port id="2" precision="FP32">
					<dim>-1</dim>
					<dim>-1</dim>
					<dim>384</dim>
				</port>
			</output>
		</layer>
		<layer id="171" name="Constant_573520" type="Const" version="opset1">
			<data element_type="f32" shape="1, 1, 384" offset="13858736" size="1536" />
			<output>
				<port id="0" precision="FP32">
					<dim>1</dim>
					<dim>1</dim>
					<dim>384</dim>
				</port>
			</output>
		</layer>
		<layer id="172" name="__module.encoder.layer.0.output.dense/aten::linear/Add" type="Add" version="opset1">
			<data auto_broadcast="numpy" />
			<input>
				<port id="0" precision="FP32">
					<dim>-1</dim>
					<dim>-1</dim>
					<dim>384</dim>
				</port>
				<port id="1" precision="FP32">
					<dim>1</dim>
					<dim>1</dim>
					<dim>384</dim>
				</port>
			</input>
			<output>
				<port id="2" precision="FP32" names="193,input.5">
					<dim>-1</dim>
					<dim>-1</dim>
					<dim>384</dim>
				</port>
			</output>
		</layer>
		<layer id="173" name="__module.encoder.layer.0.output/aten::add/Add" type="Add" version="opset1">
			<data auto_broadcast="numpy" />
			<input>
				<port id="0" precision="FP32">
					<dim>-1</dim>
					<dim>-1</dim>
					<dim>384</dim>
				</port>
				<port id="1" precision="FP32">
					<dim>-1</dim>
					<dim>-1</dim>
					<dim>384</dim>
				</port>
			</input>
			<output>
				<port id="2" precision="FP32" names="195">
					<dim>-1</dim>
					<dim>-1</dim>
					<dim>384</dim>
				</port>
			</output>
		</layer>
		<layer id="174" name="__module.encoder.layer.0.output.LayerNorm/aten::layer_norm/Multiply" type="Const" version="opset1">
			<data element_type="i32" shape="1" offset="12046084" size="4" />
			<output>
				<port id="0" precision="I32">
					<dim>1</dim>
				</port>
			</output>
		</layer>
		<layer id="175" name="__module.encoder.layer.0.output.LayerNorm/aten::layer_norm/MVN" type="MVN" version="opset6">
			<data eps="9.999999960041972e-13" normalize_variance="true" eps_mode="INSIDE_SQRT" />
			<input>
				<port id="0" precision="FP32">
					<dim>-1</dim>
					<dim>-1</dim>
					<dim>384</dim>
				</port>
				<port id="1" precision="I32">
					<dim>1</dim>
				</port>
			</input>
			<output>
				<port id="2" precision="FP32">
					<dim>-1</dim>
					<dim>-1</dim>
					<dim>384</dim>
				</port>
			</output>
		</layer>
		<layer id="176" name="Constant_573521" type="Const" version="opset1">
			<data element_type="f32" shape="1, 1, 384" offset="13860272" size="1536" />
			<output>
				<port id="0" precision="FP32">
					<dim>1</dim>
					<dim>1</dim>
					<dim>384</dim>
				</port>
			</output>
		</layer>
		<layer id="177" name="__module.encoder.layer.0.output.LayerNorm/aten::layer_norm/Multiply_1" type="Multiply" version="opset1">
			<data auto_broadcast="numpy" />
			<input>
				<port id="0" precision="FP32">
					<dim>-1</dim>
					<dim>-1</dim>
					<dim>384</dim>
				</port>
				<port id="1" precision="FP32">
					<dim>1</dim>
					<dim>1</dim>
					<dim>384</dim>
				</port>
			</input>
			<output>
				<port id="2" precision="FP32">
					<dim>-1</dim>
					<dim>-1</dim>
					<dim>384</dim>
				</port>
			</output>
		</layer>
		<layer id="178" name="Constant_573522" type="Const" version="opset1">
			<data element_type="f32" shape="1, 1, 384" offset="13861808" size="1536" />
			<output>
				<port id="0" precision="FP32">
					<dim>1</dim>
					<dim>1</dim>
					<dim>384</dim>
				</port>
			</output>
		</layer>
		<layer id="179" name="__module.encoder.layer.0.output.LayerNorm/aten::layer_norm/Add" type="Add" version="opset1">
			<data auto_broadcast="numpy" />
			<input>
				<port id="0" precision="FP32">
					<dim>-1</dim>
					<dim>-1</dim>
					<dim>384</dim>
				</port>
				<port id="1" precision="FP32">
					<dim>1</dim>
					<dim>1</dim>
					<dim>384</dim>
				</port>
			</input>
			<output>
				<port id="2" precision="FP32" names="199,hidden_states.7">
					<dim>-1</dim>
					<dim>-1</dim>
					<dim>384</dim>
				</port>
			</output>
		</layer>
		<layer id="180" name="__module.encoder.layer.0.output.LayerNorm/aten::layer_norm/Add_0_0/nncf_smooth_quant/scale" type="Const" version="opset1">
			<data element_type="f32" shape="1, 1, 384" offset="13863344" size="1536" />
			<output>
				<port id="0" precision="FP32">
					<dim>1</dim>
					<dim>1</dim>
					<dim>384</dim>
				</port>
			</output>
		</layer>
		<layer id="181" name="__module.encoder.layer.0.output.LayerNorm/aten::layer_norm/Add_0_0/nncf_smooth_quant" type="Multiply" version="opset1">
			<data auto_broadcast="numpy" />
			<input>
				<port id="0" precision="FP32">
					<dim>-1</dim>
					<dim>-1</dim>
					<dim>384</dim>
				</port>
				<port id="1" precision="FP32">
					<dim>1</dim>
					<dim>1</dim>
					<dim>384</dim>
				</port>
			</input>
			<output>
				<port id="2" precision="FP32">
					<dim>-1</dim>
					<dim>-1</dim>
					<dim>384</dim>
				</port>
			</output>
		</layer>
		<layer id="182" name="__module.encoder.layer.0.output.LayerNorm/aten::layer_norm/Add_0_0/nncf_smooth_quant/fq_output_0/input_low" type="Const" version="opset1">
			<data element_type="f32" shape="" offset="13864880" size="4" />
			<output>
				<port id="0" precision="FP32" />
			</output>
		</layer>
		<layer id="183" name="__module.encoder.layer.0.output.LayerNorm/aten::layer_norm/Add_0_0/nncf_smooth_quant/fq_output_0/input_high" type="Const" version="opset1">
			<data element_type="f32" shape="" offset="13864884" size="4" />
			<output>
				<port id="0" precision="FP32" />
			</output>
		</layer>
		<layer id="184" name="__module.encoder.layer.0.output.LayerNorm/aten::layer_norm/Add_0_0/nncf_smooth_quant/fq_output_0/output_low" type="Const" version="opset1">
			<data element_type="f32" shape="" offset="13864880" size="4" />
			<output>
				<port id="0" precision="FP32" />
			</output>
		</layer>
		<layer id="185" name="__module.encoder.layer.0.output.LayerNorm/aten::layer_norm/Add_0_0/nncf_smooth_quant/fq_output_0/output_high" type="Const" version="opset1">
			<data element_type="f32" shape="" offset="13864884" size="4" />
			<output>
				<port id="0" precision="FP32" />
			</output>
		</layer>
		<layer id="186" name="__module.encoder.layer.0.output.LayerNorm/aten::layer_norm/Add_0_0/nncf_smooth_quant/fq_output_0" type="FakeQuantize" version="opset1">
			<data levels="256" auto_broadcast="numpy" />
			<input>
				<port id="0" precision="FP32">
					<dim>-1</dim>
					<dim>-1</dim>
					<dim>384</dim>
				</port>
				<port id="1" precision="FP32" />
				<port id="2" precision="FP32" />
				<port id="3" precision="FP32" />
				<port id="4" precision="FP32" />
			</input>
			<output>
				<port id="5" precision="FP32">
					<dim>-1</dim>
					<dim>-1</dim>
					<dim>384</dim>
				</port>
			</output>
		</layer>
		<layer id="187" name="Constant_3348763" type="Const" version="opset1">
			<data element_type="i8" shape="384, 384" offset="13864888" size="147456" />
			<output>
				<port id="0" precision="I8">
					<dim>384</dim>
					<dim>384</dim>
				</port>
			</output>
		</layer>
		<layer id="188" name="Convert_3348764" type="Convert" version="opset1">
			<data destination_type="f32" />
			<input>
				<port id="0" precision="I8">
					<dim>384</dim>
					<dim>384</dim>
				</port>
			</input>
			<output>
				<port id="1" precision="FP32">
					<dim>384</dim>
					<dim>384</dim>
				</port>
			</output>
		</layer>
		<layer id="189" name="Constant_3348765" type="Const" version="opset1">
			<data element_type="f32" shape="384, 1" offset="14012344" size="1536" />
			<output>
				<port id="0" precision="FP32">
					<dim>384</dim>
					<dim>1</dim>
				</port>
			</output>
		</layer>
		<layer id="190" name="__module.encoder.layer.1.attention.self.query/aten::linear/MatMul/fq_weights_1" type="Multiply" version="opset1">
			<data auto_broadcast="numpy" />
			<input>
				<port id="0" precision="FP32">
					<dim>384</dim>
					<dim>384</dim>
				</port>
				<port id="1" precision="FP32">
					<dim>384</dim>
					<dim>1</dim>
				</port>
			</input>
			<output>
				<port id="2" precision="FP32">
					<dim>384</dim>
					<dim>384</dim>
				</port>
			</output>
		</layer>
		<layer id="191" name="__module.encoder.layer.1.attention.self.query/aten::linear/MatMul" type="MatMul" version="opset1">
			<data transpose_a="false" transpose_b="true" />
			<input>
				<port id="0" precision="FP32">
					<dim>-1</dim>
					<dim>-1</dim>
					<dim>384</dim>
				</port>
				<port id="1" precision="FP32">
					<dim>384</dim>
					<dim>384</dim>
				</port>
			</input>
			<output>
				<port id="2" precision="FP32">
					<dim>-1</dim>
					<dim>-1</dim>
					<dim>384</dim>
				</port>
			</output>
		</layer>
		<layer id="192" name="Constant_573523" type="Const" version="opset1">
			<data element_type="f32" shape="1, 1, 384" offset="14013880" size="1536" />
			<output>
				<port id="0" precision="FP32">
					<dim>1</dim>
					<dim>1</dim>
					<dim>384</dim>
				</port>
			</output>
		</layer>
		<layer id="193" name="__module.encoder.layer.1.attention.self.query/aten::linear/Add" type="Add" version="opset1">
			<data auto_broadcast="numpy" />
			<input>
				<port id="0" precision="FP32">
					<dim>-1</dim>
					<dim>-1</dim>
					<dim>384</dim>
				</port>
				<port id="1" precision="FP32">
					<dim>1</dim>
					<dim>1</dim>
					<dim>384</dim>
				</port>
			</input>
			<output>
				<port id="2" precision="FP32" names="212,x.13">
					<dim>-1</dim>
					<dim>-1</dim>
					<dim>384</dim>
				</port>
			</output>
		</layer>
		<layer id="194" name="__module.encoder.layer.1.attention.self.query/aten::linear/Add/fq_output_0/input_low" type="Const" version="opset1">
			<data element_type="f32" shape="" offset="14015416" size="4" />
			<output>
				<port id="0" precision="FP32" />
			</output>
		</layer>
		<layer id="195" name="__module.encoder.layer.1.attention.self.query/aten::linear/Add/fq_output_0/input_high" type="Const" version="opset1">
			<data element_type="f32" shape="" offset="14015420" size="4" />
			<output>
				<port id="0" precision="FP32" />
			</output>
		</layer>
		<layer id="196" name="__module.encoder.layer.1.attention.self.query/aten::linear/Add/fq_output_0/output_low" type="Const" version="opset1">
			<data element_type="f32" shape="" offset="14015416" size="4" />
			<output>
				<port id="0" precision="FP32" />
			</output>
		</layer>
		<layer id="197" name="__module.encoder.layer.1.attention.self.query/aten::linear/Add/fq_output_0/output_high" type="Const" version="opset1">
			<data element_type="f32" shape="" offset="14015420" size="4" />
			<output>
				<port id="0" precision="FP32" />
			</output>
		</layer>
		<layer id="198" name="__module.encoder.layer.1.attention.self.query/aten::linear/Add/fq_output_0" type="FakeQuantize" version="opset1">
			<data levels="256" auto_broadcast="numpy" />
			<input>
				<port id="0" precision="FP32">
					<dim>-1</dim>
					<dim>-1</dim>
					<dim>384</dim>
				</port>
				<port id="1" precision="FP32" />
				<port id="2" precision="FP32" />
				<port id="3" precision="FP32" />
				<port id="4" precision="FP32" />
			</input>
			<output>
				<port id="5" precision="FP32">
					<dim>-1</dim>
					<dim>-1</dim>
					<dim>384</dim>
				</port>
			</output>
		</layer>
		<layer id="199" name="__module.encoder.layer.1.attention.self/prim::ListConstruct/Concat" type="Const" version="opset1">
			<data element_type="i64" shape="4" offset="12201240" size="32" />
			<output>
				<port id="0" precision="I64">
					<dim>4</dim>
				</port>
			</output>
		</layer>
		<layer id="200" name="__module.encoder.layer.1.attention.self/aten::view/Reshape" type="Reshape" version="opset1">
			<data special_zero="true" />
			<input>
				<port id="0" precision="FP32">
					<dim>-1</dim>
					<dim>-1</dim>
					<dim>384</dim>
				</port>
				<port id="1" precision="I64">
					<dim>4</dim>
				</port>
			</input>
			<output>
				<port id="2" precision="FP32" names="216,x.15">
					<dim>-1</dim>
					<dim>-1</dim>
					<dim>12</dim>
					<dim>32</dim>
				</port>
			</output>
		</layer>
		<layer id="201" name="Constant_564620" type="Const" version="opset1">
			<data element_type="i64" shape="4" offset="12201272" size="32" />
			<output>
				<port id="0" precision="I64" names="217">
					<dim>4</dim>
				</port>
			</output>
		</layer>
		<layer id="202" name="__module.encoder.layer.1.attention.self/aten::permute/Transpose" type="Transpose" version="opset1">
			<input>
				<port id="0" precision="FP32">
					<dim>-1</dim>
					<dim>-1</dim>
					<dim>12</dim>
					<dim>32</dim>
				</port>
				<port id="1" precision="I64">
					<dim>4</dim>
				</port>
			</input>
			<output>
				<port id="2" precision="FP32" names="218">
					<dim>-1</dim>
					<dim>12</dim>
					<dim>-1</dim>
					<dim>32</dim>
				</port>
			</output>
		</layer>
		<layer id="203" name="Constant_3348767" type="Const" version="opset1">
			<data element_type="i8" shape="384, 384" offset="14015424" size="147456" />
			<output>
				<port id="0" precision="I8">
					<dim>384</dim>
					<dim>384</dim>
				</port>
			</output>
		</layer>
		<layer id="204" name="Convert_3348768" type="Convert" version="opset1">
			<data destination_type="f32" />
			<input>
				<port id="0" precision="I8">
					<dim>384</dim>
					<dim>384</dim>
				</port>
			</input>
			<output>
				<port id="1" precision="FP32">
					<dim>384</dim>
					<dim>384</dim>
				</port>
			</output>
		</layer>
		<layer id="205" name="Constant_3348769" type="Const" version="opset1">
			<data element_type="f32" shape="384, 1" offset="14162880" size="1536" />
			<output>
				<port id="0" precision="FP32">
					<dim>384</dim>
					<dim>1</dim>
				</port>
			</output>
		</layer>
		<layer id="206" name="__module.encoder.layer.1.attention.self.key/aten::linear/MatMul/fq_weights_1" type="Multiply" version="opset1">
			<data auto_broadcast="numpy" />
			<input>
				<port id="0" precision="FP32">
					<dim>384</dim>
					<dim>384</dim>
				</port>
				<port id="1" precision="FP32">
					<dim>384</dim>
					<dim>1</dim>
				</port>
			</input>
			<output>
				<port id="2" precision="FP32">
					<dim>384</dim>
					<dim>384</dim>
				</port>
			</output>
		</layer>
		<layer id="207" name="__module.encoder.layer.1.attention.self.key/aten::linear/MatMul" type="MatMul" version="opset1">
			<data transpose_a="false" transpose_b="true" />
			<input>
				<port id="0" precision="FP32">
					<dim>-1</dim>
					<dim>-1</dim>
					<dim>384</dim>
				</port>
				<port id="1" precision="FP32">
					<dim>384</dim>
					<dim>384</dim>
				</port>
			</input>
			<output>
				<port id="2" precision="FP32">
					<dim>-1</dim>
					<dim>-1</dim>
					<dim>384</dim>
				</port>
			</output>
		</layer>
		<layer id="208" name="Constant_573524" type="Const" version="opset1">
			<data element_type="f32" shape="1, 1, 384" offset="14164416" size="1536" />
			<output>
				<port id="0" precision="FP32">
					<dim>1</dim>
					<dim>1</dim>
					<dim>384</dim>
				</port>
			</output>
		</layer>
		<layer id="209" name="__module.encoder.layer.1.attention.self.key/aten::linear/Add" type="Add" version="opset1">
			<data auto_broadcast="numpy" />
			<input>
				<port id="0" precision="FP32">
					<dim>-1</dim>
					<dim>-1</dim>
					<dim>384</dim>
				</port>
				<port id="1" precision="FP32">
					<dim>1</dim>
					<dim>1</dim>
					<dim>384</dim>
				</port>
			</input>
			<output>
				<port id="2" precision="FP32" names="221,x.17">
					<dim>-1</dim>
					<dim>-1</dim>
					<dim>384</dim>
				</port>
			</output>
		</layer>
		<layer id="210" name="__module.encoder.layer.1.attention.self.key/aten::linear/Add/fq_output_0/input_low" type="Const" version="opset1">
			<data element_type="f32" shape="" offset="14165952" size="4" />
			<output>
				<port id="0" precision="FP32" />
			</output>
		</layer>
		<layer id="211" name="__module.encoder.layer.1.attention.self.key/aten::linear/Add/fq_output_0/input_high" type="Const" version="opset1">
			<data element_type="f32" shape="" offset="14165956" size="4" />
			<output>
				<port id="0" precision="FP32" />
			</output>
		</layer>
		<layer id="212" name="__module.encoder.layer.1.attention.self.key/aten::linear/Add/fq_output_0/output_low" type="Const" version="opset1">
			<data element_type="f32" shape="" offset="14165952" size="4" />
			<output>
				<port id="0" precision="FP32" />
			</output>
		</layer>
		<layer id="213" name="__module.encoder.layer.1.attention.self.key/aten::linear/Add/fq_output_0/output_high" type="Const" version="opset1">
			<data element_type="f32" shape="" offset="14165956" size="4" />
			<output>
				<port id="0" precision="FP32" />
			</output>
		</layer>
		<layer id="214" name="__module.encoder.layer.1.attention.self.key/aten::linear/Add/fq_output_0" type="FakeQuantize" version="opset1">
			<data levels="256" auto_broadcast="numpy" />
			<input>
				<port id="0" precision="FP32">
					<dim>-1</dim>
					<dim>-1</dim>
					<dim>384</dim>
				</port>
				<port id="1" precision="FP32" />
				<port id="2" precision="FP32" />
				<port id="3" precision="FP32" />
				<port id="4" precision="FP32" />
			</input>
			<output>
				<port id="5" precision="FP32">
					<dim>-1</dim>
					<dim>-1</dim>
					<dim>384</dim>
				</port>
			</output>
		</layer>
		<layer id="215" name="__module.encoder.layer.1.attention.self/prim::ListConstruct/Concat_1" type="Const" version="opset1">
			<data element_type="i64" shape="4" offset="12201240" size="32" />
			<output>
				<port id="0" precision="I64">
					<dim>4</dim>
				</port>
			</output>
		</layer>
		<layer id="216" name="__module.encoder.layer.1.attention.self/aten::view/Reshape_1" type="Reshape" version="opset1">
			<data special_zero="true" />
			<input>
				<port id="0" precision="FP32">
					<dim>-1</dim>
					<dim>-1</dim>
					<dim>384</dim>
				</port>
				<port id="1" precision="I64">
					<dim>4</dim>
				</port>
			</input>
			<output>
				<port id="2" precision="FP32" names="225,x.19">
					<dim>-1</dim>
					<dim>-1</dim>
					<dim>12</dim>
					<dim>32</dim>
				</port>
			</output>
		</layer>
		<layer id="217" name="Constant_564643" type="Const" version="opset1">
			<data element_type="i64" shape="4" offset="12201272" size="32" />
			<output>
				<port id="0" precision="I64" names="226">
					<dim>4</dim>
				</port>
			</output>
		</layer>
		<layer id="218" name="__module.encoder.layer.1.attention.self/aten::permute/Transpose_1" type="Transpose" version="opset1">
			<input>
				<port id="0" precision="FP32">
					<dim>-1</dim>
					<dim>-1</dim>
					<dim>12</dim>
					<dim>32</dim>
				</port>
				<port id="1" precision="I64">
					<dim>4</dim>
				</port>
			</input>
			<output>
				<port id="2" precision="FP32" names="227">
					<dim>-1</dim>
					<dim>12</dim>
					<dim>-1</dim>
					<dim>32</dim>
				</port>
			</output>
		</layer>
		<layer id="219" name="Constant_3348771" type="Const" version="opset1">
			<data element_type="i8" shape="384, 384" offset="14165960" size="147456" />
			<output>
				<port id="0" precision="I8">
					<dim>384</dim>
					<dim>384</dim>
				</port>
			</output>
		</layer>
		<layer id="220" name="Convert_3348772" type="Convert" version="opset1">
			<data destination_type="f32" />
			<input>
				<port id="0" precision="I8">
					<dim>384</dim>
					<dim>384</dim>
				</port>
			</input>
			<output>
				<port id="1" precision="FP32">
					<dim>384</dim>
					<dim>384</dim>
				</port>
			</output>
		</layer>
		<layer id="221" name="Constant_3348773" type="Const" version="opset1">
			<data element_type="f32" shape="384, 1" offset="14313416" size="1536" />
			<output>
				<port id="0" precision="FP32">
					<dim>384</dim>
					<dim>1</dim>
				</port>
			</output>
		</layer>
		<layer id="222" name="__module.encoder.layer.1.attention.self.value/aten::linear/MatMul/fq_weights_1" type="Multiply" version="opset1">
			<data auto_broadcast="numpy" />
			<input>
				<port id="0" precision="FP32">
					<dim>384</dim>
					<dim>384</dim>
				</port>
				<port id="1" precision="FP32">
					<dim>384</dim>
					<dim>1</dim>
				</port>
			</input>
			<output>
				<port id="2" precision="FP32">
					<dim>384</dim>
					<dim>384</dim>
				</port>
			</output>
		</layer>
		<layer id="223" name="__module.encoder.layer.1.attention.self.value/aten::linear/MatMul" type="MatMul" version="opset1">
			<data transpose_a="false" transpose_b="true" />
			<input>
				<port id="0" precision="FP32">
					<dim>-1</dim>
					<dim>-1</dim>
					<dim>384</dim>
				</port>
				<port id="1" precision="FP32">
					<dim>384</dim>
					<dim>384</dim>
				</port>
			</input>
			<output>
				<port id="2" precision="FP32">
					<dim>-1</dim>
					<dim>-1</dim>
					<dim>384</dim>
				</port>
			</output>
		</layer>
		<layer id="224" name="Constant_573525" type="Const" version="opset1">
			<data element_type="f32" shape="1, 1, 384" offset="14314952" size="1536" />
			<output>
				<port id="0" precision="FP32">
					<dim>1</dim>
					<dim>1</dim>
					<dim>384</dim>
				</port>
			</output>
		</layer>
		<layer id="225" name="__module.encoder.layer.1.attention.self.value/aten::linear/Add" type="Add" version="opset1">
			<data auto_broadcast="numpy" />
			<input>
				<port id="0" precision="FP32">
					<dim>-1</dim>
					<dim>-1</dim>
					<dim>384</dim>
				</port>
				<port id="1" precision="FP32">
					<dim>1</dim>
					<dim>1</dim>
					<dim>384</dim>
				</port>
			</input>
			<output>
				<port id="2" precision="FP32" names="230,x.21">
					<dim>-1</dim>
					<dim>-1</dim>
					<dim>384</dim>
				</port>
			</output>
		</layer>
		<layer id="226" name="__module.encoder.layer.1.attention.self/prim::ListConstruct/Concat_2" type="Const" version="opset1">
			<data element_type="i64" shape="4" offset="12201240" size="32" />
			<output>
				<port id="0" precision="I64">
					<dim>4</dim>
				</port>
			</output>
		</layer>
		<layer id="227" name="__module.encoder.layer.1.attention.self/aten::view/Reshape_2" type="Reshape" version="opset1">
			<data special_zero="true" />
			<input>
				<port id="0" precision="FP32">
					<dim>-1</dim>
					<dim>-1</dim>
					<dim>384</dim>
				</port>
				<port id="1" precision="I64">
					<dim>4</dim>
				</port>
			</input>
			<output>
				<port id="2" precision="FP32" names="234,x.23">
					<dim>-1</dim>
					<dim>-1</dim>
					<dim>12</dim>
					<dim>32</dim>
				</port>
			</output>
		</layer>
		<layer id="228" name="Constant_564666" type="Const" version="opset1">
			<data element_type="i64" shape="4" offset="12201272" size="32" />
			<output>
				<port id="0" precision="I64" names="235">
					<dim>4</dim>
				</port>
			</output>
		</layer>
		<layer id="229" name="__module.encoder.layer.1.attention.self/aten::permute/Transpose_2" type="Transpose" version="opset1">
			<input>
				<port id="0" precision="FP32">
					<dim>-1</dim>
					<dim>-1</dim>
					<dim>12</dim>
					<dim>32</dim>
				</port>
				<port id="1" precision="I64">
					<dim>4</dim>
				</port>
			</input>
			<output>
				<port id="2" precision="FP32" names="236">
					<dim>-1</dim>
					<dim>12</dim>
					<dim>-1</dim>
					<dim>32</dim>
				</port>
			</output>
		</layer>
		<layer id="230" name="__module.encoder.layer.1.attention.self/aten::scaled_dot_product_attention/ScaledDotProductAttention" type="ScaledDotProductAttention" version="opset13">
			<data causal="false" />
			<input>
				<port id="0" precision="FP32">
					<dim>-1</dim>
					<dim>12</dim>
					<dim>-1</dim>
					<dim>32</dim>
				</port>
				<port id="1" precision="FP32">
					<dim>-1</dim>
					<dim>12</dim>
					<dim>-1</dim>
					<dim>32</dim>
				</port>
				<port id="2" precision="FP32">
					<dim>-1</dim>
					<dim>12</dim>
					<dim>-1</dim>
					<dim>32</dim>
				</port>
				<port id="3" precision="FP32">
					<dim>-1</dim>
					<dim>1</dim>
					<dim>-1</dim>
					<dim>-1</dim>
				</port>
			</input>
			<output>
				<port id="4" precision="FP32" names="237,attn_output.5">
					<dim>-1</dim>
					<dim>12</dim>
					<dim>-1</dim>
					<dim>32</dim>
				</port>
			</output>
		</layer>
		<layer id="231" name="__module.encoder.layer.1.attention.self/aten::transpose/ScatterElementsUpdate" type="Const" version="opset1">
			<data element_type="i32" shape="4" offset="12502384" size="16" />
			<output>
				<port id="0" precision="I32">
					<dim>4</dim>
				</port>
			</output>
		</layer>
		<layer id="232" name="__module.encoder.layer.1.attention.self/aten::transpose/Transpose" type="Transpose" version="opset1">
			<input>
				<port id="0" precision="FP32">
					<dim>-1</dim>
					<dim>12</dim>
					<dim>-1</dim>
					<dim>32</dim>
				</port>
				<port id="1" precision="I32">
					<dim>4</dim>
				</port>
			</input>
			<output>
				<port id="2" precision="FP32" names="238,attn_output.7">
					<dim>-1</dim>
					<dim>-1</dim>
					<dim>12</dim>
					<dim>32</dim>
				</port>
			</output>
		</layer>
		<layer id="233" name="__module.encoder.layer.1.attention.self/aten::size/ShapeOf_6" type="ShapeOf" version="opset3">
			<data output_type="i64" />
			<input>
				<port id="0" precision="FP32">
					<dim>-1</dim>
					<dim>-1</dim>
					<dim>384</dim>
				</port>
			</input>
			<output>
				<port id="1" precision="I64">
					<dim>3</dim>
				</port>
			</output>
		</layer>
		<layer id="234" name="Constant_572598" type="Const" version="opset1">
			<data element_type="i64" shape="2" offset="12502400" size="16" />
			<output>
				<port id="0" precision="I64">
					<dim>2</dim>
				</port>
			</output>
		</layer>
		<layer id="235" name="Constant_572599" type="Const" version="opset1">
			<data element_type="i64" shape="" offset="12046068" size="8" />
			<output>
				<port id="0" precision="I64" />
			</output>
		</layer>
		<layer id="236" name="Gather_572600" type="Gather" version="opset8">
			<data batch_dims="0" />
			<input>
				<port id="0" precision="I64">
					<dim>3</dim>
				</port>
				<port id="1" precision="I64">
					<dim>2</dim>
				</port>
				<port id="2" precision="I64" />
			</input>
			<output>
				<port id="3" precision="I64">
					<dim>2</dim>
				</port>
			</output>
		</layer>
		<layer id="237" name="__module.encoder.layer.1.attention.self/prim::ListConstruct/Concat_3" type="Concat" version="opset1">
			<data axis="0" />
			<input>
				<port id="0" precision="I64">
					<dim>2</dim>
				</port>
				<port id="1" precision="I64">
					<dim>1</dim>
				</port>
			</input>
			<output>
				<port id="2" precision="I64" names="239">
					<dim>3</dim>
				</port>
			</output>
		</layer>
		<layer id="238" name="__module.encoder.layer.1.attention.self/aten::reshape/Reshape" type="Reshape" version="opset1">
			<data special_zero="false" />
			<input>
				<port id="0" precision="FP32">
					<dim>-1</dim>
					<dim>-1</dim>
					<dim>12</dim>
					<dim>32</dim>
				</port>
				<port id="1" precision="I64">
					<dim>3</dim>
				</port>
			</input>
			<output>
				<port id="2" precision="FP32" names="240">
					<dim>-1</dim>
					<dim>-1</dim>
					<dim>384</dim>
				</port>
			</output>
		</layer>
		<layer id="239" name="__module.encoder.layer.1.attention.self/aten::reshape/Reshape_0_0/nncf_smooth_quant/scale" type="Const" version="opset1">
			<data element_type="f32" shape="1, 1, 384" offset="14316488" size="1536" />
			<output>
				<port id="0" precision="FP32">
					<dim>1</dim>
					<dim>1</dim>
					<dim>384</dim>
				</port>
			</output>
		</layer>
		<layer id="240" name="__module.encoder.layer.1.attention.self/aten::reshape/Reshape_0_0/nncf_smooth_quant" type="Multiply" version="opset1">
			<data auto_broadcast="numpy" />
			<input>
				<port id="0" precision="FP32">
					<dim>-1</dim>
					<dim>-1</dim>
					<dim>384</dim>
				</port>
				<port id="1" precision="FP32">
					<dim>1</dim>
					<dim>1</dim>
					<dim>384</dim>
				</port>
			</input>
			<output>
				<port id="2" precision="FP32">
					<dim>-1</dim>
					<dim>-1</dim>
					<dim>384</dim>
				</port>
			</output>
		</layer>
		<layer id="241" name="__module.encoder.layer.1.attention.self/aten::reshape/Reshape_0_0/nncf_smooth_quant/fq_output_0/input_low" type="Const" version="opset1">
			<data element_type="f32" shape="" offset="14318024" size="4" />
			<output>
				<port id="0" precision="FP32" />
			</output>
		</layer>
		<layer id="242" name="__module.encoder.layer.1.attention.self/aten::reshape/Reshape_0_0/nncf_smooth_quant/fq_output_0/input_high" type="Const" version="opset1">
			<data element_type="f32" shape="" offset="14318028" size="4" />
			<output>
				<port id="0" precision="FP32" />
			</output>
		</layer>
		<layer id="243" name="__module.encoder.layer.1.attention.self/aten::reshape/Reshape_0_0/nncf_smooth_quant/fq_output_0/output_low" type="Const" version="opset1">
			<data element_type="f32" shape="" offset="14318024" size="4" />
			<output>
				<port id="0" precision="FP32" />
			</output>
		</layer>
		<layer id="244" name="__module.encoder.layer.1.attention.self/aten::reshape/Reshape_0_0/nncf_smooth_quant/fq_output_0/output_high" type="Const" version="opset1">
			<data element_type="f32" shape="" offset="14318028" size="4" />
			<output>
				<port id="0" precision="FP32" />
			</output>
		</layer>
		<layer id="245" name="__module.encoder.layer.1.attention.self/aten::reshape/Reshape_0_0/nncf_smooth_quant/fq_output_0" type="FakeQuantize" version="opset1">
			<data levels="256" auto_broadcast="numpy" />
			<input>
				<port id="0" precision="FP32">
					<dim>-1</dim>
					<dim>-1</dim>
					<dim>384</dim>
				</port>
				<port id="1" precision="FP32" />
				<port id="2" precision="FP32" />
				<port id="3" precision="FP32" />
				<port id="4" precision="FP32" />
			</input>
			<output>
				<port id="5" precision="FP32">
					<dim>-1</dim>
					<dim>-1</dim>
					<dim>384</dim>
				</port>
			</output>
		</layer>
		<layer id="246" name="Constant_3348775" type="Const" version="opset1">
			<data element_type="i8" shape="384, 384" offset="14318032" size="147456" />
			<output>
				<port id="0" precision="I8">
					<dim>384</dim>
					<dim>384</dim>
				</port>
			</output>
		</layer>
		<layer id="247" name="Convert_3348776" type="Convert" version="opset1">
			<data destination_type="f32" />
			<input>
				<port id="0" precision="I8">
					<dim>384</dim>
					<dim>384</dim>
				</port>
			</input>
			<output>
				<port id="1" precision="FP32">
					<dim>384</dim>
					<dim>384</dim>
				</port>
			</output>
		</layer>
		<layer id="248" name="Constant_3348777" type="Const" version="opset1">
			<data element_type="f32" shape="384, 1" offset="14465488" size="1536" />
			<output>
				<port id="0" precision="FP32">
					<dim>384</dim>
					<dim>1</dim>
				</port>
			</output>
		</layer>
		<layer id="249" name="__module.encoder.layer.1.attention.output.dense/aten::linear/MatMul/fq_weights_1" type="Multiply" version="opset1">
			<data auto_broadcast="numpy" />
			<input>
				<port id="0" precision="FP32">
					<dim>384</dim>
					<dim>384</dim>
				</port>
				<port id="1" precision="FP32">
					<dim>384</dim>
					<dim>1</dim>
				</port>
			</input>
			<output>
				<port id="2" precision="FP32">
					<dim>384</dim>
					<dim>384</dim>
				</port>
			</output>
		</layer>
		<layer id="250" name="__module.encoder.layer.1.attention.output.dense/aten::linear/MatMul" type="MatMul" version="opset1">
			<data transpose_a="false" transpose_b="true" />
			<input>
				<port id="0" precision="FP32">
					<dim>-1</dim>
					<dim>-1</dim>
					<dim>384</dim>
				</port>
				<port id="1" precision="FP32">
					<dim>384</dim>
					<dim>384</dim>
				</port>
			</input>
			<output>
				<port id="2" precision="FP32">
					<dim>-1</dim>
					<dim>-1</dim>
					<dim>384</dim>
				</port>
			</output>
		</layer>
		<layer id="251" name="Constant_573526" type="Const" version="opset1">
			<data element_type="f32" shape="1, 1, 384" offset="14467024" size="1536" />
			<output>
				<port id="0" precision="FP32">
					<dim>1</dim>
					<dim>1</dim>
					<dim>384</dim>
				</port>
			</output>
		</layer>
		<layer id="252" name="__module.encoder.layer.1.attention.output.dense/aten::linear/Add" type="Add" version="opset1">
			<data auto_broadcast="numpy" />
			<input>
				<port id="0" precision="FP32">
					<dim>-1</dim>
					<dim>-1</dim>
					<dim>384</dim>
				</port>
				<port id="1" precision="FP32">
					<dim>1</dim>
					<dim>1</dim>
					<dim>384</dim>
				</port>
			</input>
			<output>
				<port id="2" precision="FP32" names="246,input.7">
					<dim>-1</dim>
					<dim>-1</dim>
					<dim>384</dim>
				</port>
			</output>
		</layer>
		<layer id="253" name="__module.encoder.layer.1.attention.output/aten::add/Add" type="Add" version="opset1">
			<data auto_broadcast="numpy" />
			<input>
				<port id="0" precision="FP32">
					<dim>-1</dim>
					<dim>-1</dim>
					<dim>384</dim>
				</port>
				<port id="1" precision="FP32">
					<dim>-1</dim>
					<dim>-1</dim>
					<dim>384</dim>
				</port>
			</input>
			<output>
				<port id="2" precision="FP32" names="248">
					<dim>-1</dim>
					<dim>-1</dim>
					<dim>384</dim>
				</port>
			</output>
		</layer>
		<layer id="254" name="__module.encoder.layer.1.attention.output.LayerNorm/aten::layer_norm/Multiply" type="Const" version="opset1">
			<data element_type="i32" shape="1" offset="12046084" size="4" />
			<output>
				<port id="0" precision="I32">
					<dim>1</dim>
				</port>
			</output>
		</layer>
		<layer id="255" name="__module.encoder.layer.1.attention.output.LayerNorm/aten::layer_norm/MVN" type="MVN" version="opset6">
			<data eps="9.999999960041972e-13" normalize_variance="true" eps_mode="INSIDE_SQRT" />
			<input>
				<port id="0" precision="FP32">
					<dim>-1</dim>
					<dim>-1</dim>
					<dim>384</dim>
				</port>
				<port id="1" precision="I32">
					<dim>1</dim>
				</port>
			</input>
			<output>
				<port id="2" precision="FP32">
					<dim>-1</dim>
					<dim>-1</dim>
					<dim>384</dim>
				</port>
			</output>
		</layer>
		<layer id="256" name="Constant_573527" type="Const" version="opset1">
			<data element_type="f32" shape="1, 1, 384" offset="14468560" size="1536" />
			<output>
				<port id="0" precision="FP32">
					<dim>1</dim>
					<dim>1</dim>
					<dim>384</dim>
				</port>
			</output>
		</layer>
		<layer id="257" name="__module.encoder.layer.1.attention.output.LayerNorm/aten::layer_norm/Multiply_1" type="Multiply" version="opset1">
			<data auto_broadcast="numpy" />
			<input>
				<port id="0" precision="FP32">
					<dim>-1</dim>
					<dim>-1</dim>
					<dim>384</dim>
				</port>
				<port id="1" precision="FP32">
					<dim>1</dim>
					<dim>1</dim>
					<dim>384</dim>
				</port>
			</input>
			<output>
				<port id="2" precision="FP32">
					<dim>-1</dim>
					<dim>-1</dim>
					<dim>384</dim>
				</port>
			</output>
		</layer>
		<layer id="258" name="Constant_573528" type="Const" version="opset1">
			<data element_type="f32" shape="1, 1, 384" offset="14470096" size="1536" />
			<output>
				<port id="0" precision="FP32">
					<dim>1</dim>
					<dim>1</dim>
					<dim>384</dim>
				</port>
			</output>
		</layer>
		<layer id="259" name="__module.encoder.layer.1.attention.output.LayerNorm/aten::layer_norm/Add" type="Add" version="opset1">
			<data auto_broadcast="numpy" />
			<input>
				<port id="0" precision="FP32">
					<dim>-1</dim>
					<dim>-1</dim>
					<dim>384</dim>
				</port>
				<port id="1" precision="FP32">
					<dim>1</dim>
					<dim>1</dim>
					<dim>384</dim>
				</port>
			</input>
			<output>
				<port id="2" precision="FP32" names="252,input_tensor.3">
					<dim>-1</dim>
					<dim>-1</dim>
					<dim>384</dim>
				</port>
			</output>
		</layer>
		<layer id="260" name="__module.encoder.layer.1.attention.output.LayerNorm/aten::layer_norm/Add_0_0/nncf_smooth_quant/scale" type="Const" version="opset1">
			<data element_type="f32" shape="1, 1, 384" offset="14471632" size="1536" />
			<output>
				<port id="0" precision="FP32">
					<dim>1</dim>
					<dim>1</dim>
					<dim>384</dim>
				</port>
			</output>
		</layer>
		<layer id="261" name="__module.encoder.layer.1.attention.output.LayerNorm/aten::layer_norm/Add_0_0/nncf_smooth_quant" type="Multiply" version="opset1">
			<data auto_broadcast="numpy" />
			<input>
				<port id="0" precision="FP32">
					<dim>-1</dim>
					<dim>-1</dim>
					<dim>384</dim>
				</port>
				<port id="1" precision="FP32">
					<dim>1</dim>
					<dim>1</dim>
					<dim>384</dim>
				</port>
			</input>
			<output>
				<port id="2" precision="FP32">
					<dim>-1</dim>
					<dim>-1</dim>
					<dim>384</dim>
				</port>
			</output>
		</layer>
		<layer id="262" name="__module.encoder.layer.1.attention.output.LayerNorm/aten::layer_norm/Add_0_0/nncf_smooth_quant/fq_output_0/input_low" type="Const" version="opset1">
			<data element_type="f32" shape="" offset="14473168" size="4" />
			<output>
				<port id="0" precision="FP32" />
			</output>
		</layer>
		<layer id="263" name="__module.encoder.layer.1.attention.output.LayerNorm/aten::layer_norm/Add_0_0/nncf_smooth_quant/fq_output_0/input_high" type="Const" version="opset1">
			<data element_type="f32" shape="" offset="14473172" size="4" />
			<output>
				<port id="0" precision="FP32" />
			</output>
		</layer>
		<layer id="264" name="__module.encoder.layer.1.attention.output.LayerNorm/aten::layer_norm/Add_0_0/nncf_smooth_quant/fq_output_0/output_low" type="Const" version="opset1">
			<data element_type="f32" shape="" offset="14473168" size="4" />
			<output>
				<port id="0" precision="FP32" />
			</output>
		</layer>
		<layer id="265" name="__module.encoder.layer.1.attention.output.LayerNorm/aten::layer_norm/Add_0_0/nncf_smooth_quant/fq_output_0/output_high" type="Const" version="opset1">
			<data element_type="f32" shape="" offset="14473172" size="4" />
			<output>
				<port id="0" precision="FP32" />
			</output>
		</layer>
		<layer id="266" name="__module.encoder.layer.1.attention.output.LayerNorm/aten::layer_norm/Add_0_0/nncf_smooth_quant/fq_output_0" type="FakeQuantize" version="opset1">
			<data levels="256" auto_broadcast="numpy" />
			<input>
				<port id="0" precision="FP32">
					<dim>-1</dim>
					<dim>-1</dim>
					<dim>384</dim>
				</port>
				<port id="1" precision="FP32" />
				<port id="2" precision="FP32" />
				<port id="3" precision="FP32" />
				<port id="4" precision="FP32" />
			</input>
			<output>
				<port id="5" precision="FP32">
					<dim>-1</dim>
					<dim>-1</dim>
					<dim>384</dim>
				</port>
			</output>
		</layer>
		<layer id="267" name="Constant_3348779" type="Const" version="opset1">
			<data element_type="i8" shape="1536, 384" offset="14473176" size="589824" />
			<output>
				<port id="0" precision="I8">
					<dim>1536</dim>
					<dim>384</dim>
				</port>
			</output>
		</layer>
		<layer id="268" name="Convert_3348780" type="Convert" version="opset1">
			<data destination_type="f32" />
			<input>
				<port id="0" precision="I8">
					<dim>1536</dim>
					<dim>384</dim>
				</port>
			</input>
			<output>
				<port id="1" precision="FP32">
					<dim>1536</dim>
					<dim>384</dim>
				</port>
			</output>
		</layer>
		<layer id="269" name="Constant_3348781" type="Const" version="opset1">
			<data element_type="f32" shape="1536, 1" offset="15063000" size="6144" />
			<output>
				<port id="0" precision="FP32">
					<dim>1536</dim>
					<dim>1</dim>
				</port>
			</output>
		</layer>
		<layer id="270" name="__module.encoder.layer.1.intermediate.dense/aten::linear/MatMul/fq_weights_1" type="Multiply" version="opset1">
			<data auto_broadcast="numpy" />
			<input>
				<port id="0" precision="FP32">
					<dim>1536</dim>
					<dim>384</dim>
				</port>
				<port id="1" precision="FP32">
					<dim>1536</dim>
					<dim>1</dim>
				</port>
			</input>
			<output>
				<port id="2" precision="FP32">
					<dim>1536</dim>
					<dim>384</dim>
				</port>
			</output>
		</layer>
		<layer id="271" name="__module.encoder.layer.1.intermediate.dense/aten::linear/MatMul" type="MatMul" version="opset1">
			<data transpose_a="false" transpose_b="true" />
			<input>
				<port id="0" precision="FP32">
					<dim>-1</dim>
					<dim>-1</dim>
					<dim>384</dim>
				</port>
				<port id="1" precision="FP32">
					<dim>1536</dim>
					<dim>384</dim>
				</port>
			</input>
			<output>
				<port id="2" precision="FP32">
					<dim>-1</dim>
					<dim>-1</dim>
					<dim>1536</dim>
				</port>
			</output>
		</layer>
		<layer id="272" name="Constant_573529" type="Const" version="opset1">
			<data element_type="f32" shape="1, 1, 1536" offset="15069144" size="6144" />
			<output>
				<port id="0" precision="FP32">
					<dim>1</dim>
					<dim>1</dim>
					<dim>1536</dim>
				</port>
			</output>
		</layer>
		<layer id="273" name="__module.encoder.layer.1.intermediate.dense/aten::linear/Add" type="Add" version="opset1">
			<data auto_broadcast="numpy" />
			<input>
				<port id="0" precision="FP32">
					<dim>-1</dim>
					<dim>-1</dim>
					<dim>1536</dim>
				</port>
				<port id="1" precision="FP32">
					<dim>1</dim>
					<dim>1</dim>
					<dim>1536</dim>
				</port>
			</input>
			<output>
				<port id="2" precision="FP32" names="257">
					<dim>-1</dim>
					<dim>-1</dim>
					<dim>1536</dim>
				</port>
			</output>
		</layer>
		<layer id="274" name="__module.encoder.layer.1.intermediate.intermediate_act_fn/aten::gelu/Gelu" type="Gelu" version="opset7">
			<data approximation_mode="ERF" />
			<input>
				<port id="0" precision="FP32">
					<dim>-1</dim>
					<dim>-1</dim>
					<dim>1536</dim>
				</port>
			</input>
			<output>
				<port id="1" precision="FP32" names="258">
					<dim>-1</dim>
					<dim>-1</dim>
					<dim>1536</dim>
				</port>
			</output>
		</layer>
		<layer id="275" name="__module.encoder.layer.1.intermediate.intermediate_act_fn/aten::gelu/Gelu_0_0/nncf_smooth_quant/scale" type="Const" version="opset1">
			<data element_type="f32" shape="1, 1, 1536" offset="15075288" size="6144" />
			<output>
				<port id="0" precision="FP32">
					<dim>1</dim>
					<dim>1</dim>
					<dim>1536</dim>
				</port>
			</output>
		</layer>
		<layer id="276" name="__module.encoder.layer.1.intermediate.intermediate_act_fn/aten::gelu/Gelu_0_0/nncf_smooth_quant" type="Multiply" version="opset1">
			<data auto_broadcast="numpy" />
			<input>
				<port id="0" precision="FP32">
					<dim>-1</dim>
					<dim>-1</dim>
					<dim>1536</dim>
				</port>
				<port id="1" precision="FP32">
					<dim>1</dim>
					<dim>1</dim>
					<dim>1536</dim>
				</port>
			</input>
			<output>
				<port id="2" precision="FP32">
					<dim>-1</dim>
					<dim>-1</dim>
					<dim>1536</dim>
				</port>
			</output>
		</layer>
		<layer id="277" name="__module.encoder.layer.1.intermediate.intermediate_act_fn/aten::gelu/Gelu_0_0/nncf_smooth_quant/fq_output_0/input_low" type="Const" version="opset1">
			<data element_type="f32" shape="" offset="15081432" size="4" />
			<output>
				<port id="0" precision="FP32" />
			</output>
		</layer>
		<layer id="278" name="__module.encoder.layer.1.intermediate.intermediate_act_fn/aten::gelu/Gelu_0_0/nncf_smooth_quant/fq_output_0/input_high" type="Const" version="opset1">
			<data element_type="f32" shape="" offset="15081436" size="4" />
			<output>
				<port id="0" precision="FP32" />
			</output>
		</layer>
		<layer id="279" name="__module.encoder.layer.1.intermediate.intermediate_act_fn/aten::gelu/Gelu_0_0/nncf_smooth_quant/fq_output_0/output_low" type="Const" version="opset1">
			<data element_type="f32" shape="" offset="15081432" size="4" />
			<output>
				<port id="0" precision="FP32" />
			</output>
		</layer>
		<layer id="280" name="__module.encoder.layer.1.intermediate.intermediate_act_fn/aten::gelu/Gelu_0_0/nncf_smooth_quant/fq_output_0/output_high" type="Const" version="opset1">
			<data element_type="f32" shape="" offset="15081436" size="4" />
			<output>
				<port id="0" precision="FP32" />
			</output>
		</layer>
		<layer id="281" name="__module.encoder.layer.1.intermediate.intermediate_act_fn/aten::gelu/Gelu_0_0/nncf_smooth_quant/fq_output_0" type="FakeQuantize" version="opset1">
			<data levels="256" auto_broadcast="numpy" />
			<input>
				<port id="0" precision="FP32">
					<dim>-1</dim>
					<dim>-1</dim>
					<dim>1536</dim>
				</port>
				<port id="1" precision="FP32" />
				<port id="2" precision="FP32" />
				<port id="3" precision="FP32" />
				<port id="4" precision="FP32" />
			</input>
			<output>
				<port id="5" precision="FP32">
					<dim>-1</dim>
					<dim>-1</dim>
					<dim>1536</dim>
				</port>
			</output>
		</layer>
		<layer id="282" name="Constant_3348783" type="Const" version="opset1">
			<data element_type="i8" shape="384, 1536" offset="15081440" size="589824" />
			<output>
				<port id="0" precision="I8">
					<dim>384</dim>
					<dim>1536</dim>
				</port>
			</output>
		</layer>
		<layer id="283" name="Convert_3348784" type="Convert" version="opset1">
			<data destination_type="f32" />
			<input>
				<port id="0" precision="I8">
					<dim>384</dim>
					<dim>1536</dim>
				</port>
			</input>
			<output>
				<port id="1" precision="FP32">
					<dim>384</dim>
					<dim>1536</dim>
				</port>
			</output>
		</layer>
		<layer id="284" name="Constant_3348785" type="Const" version="opset1">
			<data element_type="f32" shape="384, 1" offset="15671264" size="1536" />
			<output>
				<port id="0" precision="FP32">
					<dim>384</dim>
					<dim>1</dim>
				</port>
			</output>
		</layer>
		<layer id="285" name="__module.encoder.layer.1.output.dense/aten::linear/MatMul/fq_weights_1" type="Multiply" version="opset1">
			<data auto_broadcast="numpy" />
			<input>
				<port id="0" precision="FP32">
					<dim>384</dim>
					<dim>1536</dim>
				</port>
				<port id="1" precision="FP32">
					<dim>384</dim>
					<dim>1</dim>
				</port>
			</input>
			<output>
				<port id="2" precision="FP32">
					<dim>384</dim>
					<dim>1536</dim>
				</port>
			</output>
		</layer>
		<layer id="286" name="__module.encoder.layer.1.output.dense/aten::linear/MatMul" type="MatMul" version="opset1">
			<data transpose_a="false" transpose_b="true" />
			<input>
				<port id="0" precision="FP32">
					<dim>-1</dim>
					<dim>-1</dim>
					<dim>1536</dim>
				</port>
				<port id="1" precision="FP32">
					<dim>384</dim>
					<dim>1536</dim>
				</port>
			</input>
			<output>
				<port id="2" precision="FP32">
					<dim>-1</dim>
					<dim>-1</dim>
					<dim>384</dim>
				</port>
			</output>
		</layer>
		<layer id="287" name="Constant_573530" type="Const" version="opset1">
			<data element_type="f32" shape="1, 1, 384" offset="15672800" size="1536" />
			<output>
				<port id="0" precision="FP32">
					<dim>1</dim>
					<dim>1</dim>
					<dim>384</dim>
				</port>
			</output>
		</layer>
		<layer id="288" name="__module.encoder.layer.1.output.dense/aten::linear/Add" type="Add" version="opset1">
			<data auto_broadcast="numpy" />
			<input>
				<port id="0" precision="FP32">
					<dim>-1</dim>
					<dim>-1</dim>
					<dim>384</dim>
				</port>
				<port id="1" precision="FP32">
					<dim>1</dim>
					<dim>1</dim>
					<dim>384</dim>
				</port>
			</input>
			<output>
				<port id="2" precision="FP32" names="264,input.9">
					<dim>-1</dim>
					<dim>-1</dim>
					<dim>384</dim>
				</port>
			</output>
		</layer>
		<layer id="289" name="__module.encoder.layer.1.output/aten::add/Add" type="Add" version="opset1">
			<data auto_broadcast="numpy" />
			<input>
				<port id="0" precision="FP32">
					<dim>-1</dim>
					<dim>-1</dim>
					<dim>384</dim>
				</port>
				<port id="1" precision="FP32">
					<dim>-1</dim>
					<dim>-1</dim>
					<dim>384</dim>
				</port>
			</input>
			<output>
				<port id="2" precision="FP32" names="266">
					<dim>-1</dim>
					<dim>-1</dim>
					<dim>384</dim>
				</port>
			</output>
		</layer>
		<layer id="290" name="__module.encoder.layer.1.output.LayerNorm/aten::layer_norm/Multiply" type="Const" version="opset1">
			<data element_type="i32" shape="1" offset="12046084" size="4" />
			<output>
				<port id="0" precision="I32">
					<dim>1</dim>
				</port>
			</output>
		</layer>
		<layer id="291" name="__module.encoder.layer.1.output.LayerNorm/aten::layer_norm/MVN" type="MVN" version="opset6">
			<data eps="9.999999960041972e-13" normalize_variance="true" eps_mode="INSIDE_SQRT" />
			<input>
				<port id="0" precision="FP32">
					<dim>-1</dim>
					<dim>-1</dim>
					<dim>384</dim>
				</port>
				<port id="1" precision="I32">
					<dim>1</dim>
				</port>
			</input>
			<output>
				<port id="2" precision="FP32">
					<dim>-1</dim>
					<dim>-1</dim>
					<dim>384</dim>
				</port>
			</output>
		</layer>
		<layer id="292" name="Constant_573531" type="Const" version="opset1">
			<data element_type="f32" shape="1, 1, 384" offset="15674336" size="1536" />
			<output>
				<port id="0" precision="FP32">
					<dim>1</dim>
					<dim>1</dim>
					<dim>384</dim>
				</port>
			</output>
		</layer>
		<layer id="293" name="__module.encoder.layer.1.output.LayerNorm/aten::layer_norm/Multiply_1" type="Multiply" version="opset1">
			<data auto_broadcast="numpy" />
			<input>
				<port id="0" precision="FP32">
					<dim>-1</dim>
					<dim>-1</dim>
					<dim>384</dim>
				</port>
				<port id="1" precision="FP32">
					<dim>1</dim>
					<dim>1</dim>
					<dim>384</dim>
				</port>
			</input>
			<output>
				<port id="2" precision="FP32">
					<dim>-1</dim>
					<dim>-1</dim>
					<dim>384</dim>
				</port>
			</output>
		</layer>
		<layer id="294" name="Constant_573532" type="Const" version="opset1">
			<data element_type="f32" shape="1, 1, 384" offset="15675872" size="1536" />
			<output>
				<port id="0" precision="FP32">
					<dim>1</dim>
					<dim>1</dim>
					<dim>384</dim>
				</port>
			</output>
		</layer>
		<layer id="295" name="__module.encoder.layer.1.output.LayerNorm/aten::layer_norm/Add" type="Add" version="opset1">
			<data auto_broadcast="numpy" />
			<input>
				<port id="0" precision="FP32">
					<dim>-1</dim>
					<dim>-1</dim>
					<dim>384</dim>
				</port>
				<port id="1" precision="FP32">
					<dim>1</dim>
					<dim>1</dim>
					<dim>384</dim>
				</port>
			</input>
			<output>
				<port id="2" precision="FP32" names="270,hidden_states.13">
					<dim>-1</dim>
					<dim>-1</dim>
					<dim>384</dim>
				</port>
			</output>
		</layer>
		<layer id="296" name="__module.encoder.layer.1.output.LayerNorm/aten::layer_norm/Add_0_0/nncf_smooth_quant/scale" type="Const" version="opset1">
			<data element_type="f32" shape="1, 1, 384" offset="15677408" size="1536" />
			<output>
				<port id="0" precision="FP32">
					<dim>1</dim>
					<dim>1</dim>
					<dim>384</dim>
				</port>
			</output>
		</layer>
		<layer id="297" name="__module.encoder.layer.1.output.LayerNorm/aten::layer_norm/Add_0_0/nncf_smooth_quant" type="Multiply" version="opset1">
			<data auto_broadcast="numpy" />
			<input>
				<port id="0" precision="FP32">
					<dim>-1</dim>
					<dim>-1</dim>
					<dim>384</dim>
				</port>
				<port id="1" precision="FP32">
					<dim>1</dim>
					<dim>1</dim>
					<dim>384</dim>
				</port>
			</input>
			<output>
				<port id="2" precision="FP32">
					<dim>-1</dim>
					<dim>-1</dim>
					<dim>384</dim>
				</port>
			</output>
		</layer>
		<layer id="298" name="__module.encoder.layer.1.output.LayerNorm/aten::layer_norm/Add_0_0/nncf_smooth_quant/fq_output_0/input_low" type="Const" version="opset1">
			<data element_type="f32" shape="" offset="15678944" size="4" />
			<output>
				<port id="0" precision="FP32" />
			</output>
		</layer>
		<layer id="299" name="__module.encoder.layer.1.output.LayerNorm/aten::layer_norm/Add_0_0/nncf_smooth_quant/fq_output_0/input_high" type="Const" version="opset1">
			<data element_type="f32" shape="" offset="15678948" size="4" />
			<output>
				<port id="0" precision="FP32" />
			</output>
		</layer>
		<layer id="300" name="__module.encoder.layer.1.output.LayerNorm/aten::layer_norm/Add_0_0/nncf_smooth_quant/fq_output_0/output_low" type="Const" version="opset1">
			<data element_type="f32" shape="" offset="15678944" size="4" />
			<output>
				<port id="0" precision="FP32" />
			</output>
		</layer>
		<layer id="301" name="__module.encoder.layer.1.output.LayerNorm/aten::layer_norm/Add_0_0/nncf_smooth_quant/fq_output_0/output_high" type="Const" version="opset1">
			<data element_type="f32" shape="" offset="15678948" size="4" />
			<output>
				<port id="0" precision="FP32" />
			</output>
		</layer>
		<layer id="302" name="__module.encoder.layer.1.output.LayerNorm/aten::layer_norm/Add_0_0/nncf_smooth_quant/fq_output_0" type="FakeQuantize" version="opset1">
			<data levels="256" auto_broadcast="numpy" />
			<input>
				<port id="0" precision="FP32">
					<dim>-1</dim>
					<dim>-1</dim>
					<dim>384</dim>
				</port>
				<port id="1" precision="FP32" />
				<port id="2" precision="FP32" />
				<port id="3" precision="FP32" />
				<port id="4" precision="FP32" />
			</input>
			<output>
				<port id="5" precision="FP32">
					<dim>-1</dim>
					<dim>-1</dim>
					<dim>384</dim>
				</port>
			</output>
		</layer>
		<layer id="303" name="Constant_3348787" type="Const" version="opset1">
			<data element_type="i8" shape="384, 384" offset="15678952" size="147456" />
			<output>
				<port id="0" precision="I8">
					<dim>384</dim>
					<dim>384</dim>
				</port>
			</output>
		</layer>
		<layer id="304" name="Convert_3348788" type="Convert" version="opset1">
			<data destination_type="f32" />
			<input>
				<port id="0" precision="I8">
					<dim>384</dim>
					<dim>384</dim>
				</port>
			</input>
			<output>
				<port id="1" precision="FP32">
					<dim>384</dim>
					<dim>384</dim>
				</port>
			</output>
		</layer>
		<layer id="305" name="Constant_3348789" type="Const" version="opset1">
			<data element_type="f32" shape="384, 1" offset="15826408" size="1536" />
			<output>
				<port id="0" precision="FP32">
					<dim>384</dim>
					<dim>1</dim>
				</port>
			</output>
		</layer>
		<layer id="306" name="__module.encoder.layer.2.attention.self.query/aten::linear/MatMul/fq_weights_1" type="Multiply" version="opset1">
			<data auto_broadcast="numpy" />
			<input>
				<port id="0" precision="FP32">
					<dim>384</dim>
					<dim>384</dim>
				</port>
				<port id="1" precision="FP32">
					<dim>384</dim>
					<dim>1</dim>
				</port>
			</input>
			<output>
				<port id="2" precision="FP32">
					<dim>384</dim>
					<dim>384</dim>
				</port>
			</output>
		</layer>
		<layer id="307" name="__module.encoder.layer.2.attention.self.query/aten::linear/MatMul" type="MatMul" version="opset1">
			<data transpose_a="false" transpose_b="true" />
			<input>
				<port id="0" precision="FP32">
					<dim>-1</dim>
					<dim>-1</dim>
					<dim>384</dim>
				</port>
				<port id="1" precision="FP32">
					<dim>384</dim>
					<dim>384</dim>
				</port>
			</input>
			<output>
				<port id="2" precision="FP32">
					<dim>-1</dim>
					<dim>-1</dim>
					<dim>384</dim>
				</port>
			</output>
		</layer>
		<layer id="308" name="Constant_573533" type="Const" version="opset1">
			<data element_type="f32" shape="1, 1, 384" offset="15827944" size="1536" />
			<output>
				<port id="0" precision="FP32">
					<dim>1</dim>
					<dim>1</dim>
					<dim>384</dim>
				</port>
			</output>
		</layer>
		<layer id="309" name="__module.encoder.layer.2.attention.self.query/aten::linear/Add" type="Add" version="opset1">
			<data auto_broadcast="numpy" />
			<input>
				<port id="0" precision="FP32">
					<dim>-1</dim>
					<dim>-1</dim>
					<dim>384</dim>
				</port>
				<port id="1" precision="FP32">
					<dim>1</dim>
					<dim>1</dim>
					<dim>384</dim>
				</port>
			</input>
			<output>
				<port id="2" precision="FP32" names="283,x.25">
					<dim>-1</dim>
					<dim>-1</dim>
					<dim>384</dim>
				</port>
			</output>
		</layer>
		<layer id="310" name="__module.encoder.layer.2.attention.self.query/aten::linear/Add/fq_output_0/input_low" type="Const" version="opset1">
			<data element_type="f32" shape="" offset="15829480" size="4" />
			<output>
				<port id="0" precision="FP32" />
			</output>
		</layer>
		<layer id="311" name="__module.encoder.layer.2.attention.self.query/aten::linear/Add/fq_output_0/input_high" type="Const" version="opset1">
			<data element_type="f32" shape="" offset="15829484" size="4" />
			<output>
				<port id="0" precision="FP32" />
			</output>
		</layer>
		<layer id="312" name="__module.encoder.layer.2.attention.self.query/aten::linear/Add/fq_output_0/output_low" type="Const" version="opset1">
			<data element_type="f32" shape="" offset="15829480" size="4" />
			<output>
				<port id="0" precision="FP32" />
			</output>
		</layer>
		<layer id="313" name="__module.encoder.layer.2.attention.self.query/aten::linear/Add/fq_output_0/output_high" type="Const" version="opset1">
			<data element_type="f32" shape="" offset="15829484" size="4" />
			<output>
				<port id="0" precision="FP32" />
			</output>
		</layer>
		<layer id="314" name="__module.encoder.layer.2.attention.self.query/aten::linear/Add/fq_output_0" type="FakeQuantize" version="opset1">
			<data levels="256" auto_broadcast="numpy" />
			<input>
				<port id="0" precision="FP32">
					<dim>-1</dim>
					<dim>-1</dim>
					<dim>384</dim>
				</port>
				<port id="1" precision="FP32" />
				<port id="2" precision="FP32" />
				<port id="3" precision="FP32" />
				<port id="4" precision="FP32" />
			</input>
			<output>
				<port id="5" precision="FP32">
					<dim>-1</dim>
					<dim>-1</dim>
					<dim>384</dim>
				</port>
			</output>
		</layer>
		<layer id="315" name="__module.encoder.layer.2.attention.self/prim::ListConstruct/Concat" type="Const" version="opset1">
			<data element_type="i64" shape="4" offset="12201240" size="32" />
			<output>
				<port id="0" precision="I64">
					<dim>4</dim>
				</port>
			</output>
		</layer>
		<layer id="316" name="__module.encoder.layer.2.attention.self/aten::view/Reshape" type="Reshape" version="opset1">
			<data special_zero="true" />
			<input>
				<port id="0" precision="FP32">
					<dim>-1</dim>
					<dim>-1</dim>
					<dim>384</dim>
				</port>
				<port id="1" precision="I64">
					<dim>4</dim>
				</port>
			</input>
			<output>
				<port id="2" precision="FP32" names="287,x.27">
					<dim>-1</dim>
					<dim>-1</dim>
					<dim>12</dim>
					<dim>32</dim>
				</port>
			</output>
		</layer>
		<layer id="317" name="Constant_564846" type="Const" version="opset1">
			<data element_type="i64" shape="4" offset="12201272" size="32" />
			<output>
				<port id="0" precision="I64" names="288">
					<dim>4</dim>
				</port>
			</output>
		</layer>
		<layer id="318" name="__module.encoder.layer.2.attention.self/aten::permute/Transpose" type="Transpose" version="opset1">
			<input>
				<port id="0" precision="FP32">
					<dim>-1</dim>
					<dim>-1</dim>
					<dim>12</dim>
					<dim>32</dim>
				</port>
				<port id="1" precision="I64">
					<dim>4</dim>
				</port>
			</input>
			<output>
				<port id="2" precision="FP32" names="289">
					<dim>-1</dim>
					<dim>12</dim>
					<dim>-1</dim>
					<dim>32</dim>
				</port>
			</output>
		</layer>
		<layer id="319" name="Constant_3348791" type="Const" version="opset1">
			<data element_type="i8" shape="384, 384" offset="15829488" size="147456" />
			<output>
				<port id="0" precision="I8">
					<dim>384</dim>
					<dim>384</dim>
				</port>
			</output>
		</layer>
		<layer id="320" name="Convert_3348792" type="Convert" version="opset1">
			<data destination_type="f32" />
			<input>
				<port id="0" precision="I8">
					<dim>384</dim>
					<dim>384</dim>
				</port>
			</input>
			<output>
				<port id="1" precision="FP32">
					<dim>384</dim>
					<dim>384</dim>
				</port>
			</output>
		</layer>
		<layer id="321" name="Constant_3348793" type="Const" version="opset1">
			<data element_type="f32" shape="384, 1" offset="15976944" size="1536" />
			<output>
				<port id="0" precision="FP32">
					<dim>384</dim>
					<dim>1</dim>
				</port>
			</output>
		</layer>
		<layer id="322" name="__module.encoder.layer.2.attention.self.key/aten::linear/MatMul/fq_weights_1" type="Multiply" version="opset1">
			<data auto_broadcast="numpy" />
			<input>
				<port id="0" precision="FP32">
					<dim>384</dim>
					<dim>384</dim>
				</port>
				<port id="1" precision="FP32">
					<dim>384</dim>
					<dim>1</dim>
				</port>
			</input>
			<output>
				<port id="2" precision="FP32">
					<dim>384</dim>
					<dim>384</dim>
				</port>
			</output>
		</layer>
		<layer id="323" name="__module.encoder.layer.2.attention.self.key/aten::linear/MatMul" type="MatMul" version="opset1">
			<data transpose_a="false" transpose_b="true" />
			<input>
				<port id="0" precision="FP32">
					<dim>-1</dim>
					<dim>-1</dim>
					<dim>384</dim>
				</port>
				<port id="1" precision="FP32">
					<dim>384</dim>
					<dim>384</dim>
				</port>
			</input>
			<output>
				<port id="2" precision="FP32">
					<dim>-1</dim>
					<dim>-1</dim>
					<dim>384</dim>
				</port>
			</output>
		</layer>
		<layer id="324" name="Constant_573534" type="Const" version="opset1">
			<data element_type="f32" shape="1, 1, 384" offset="15978480" size="1536" />
			<output>
				<port id="0" precision="FP32">
					<dim>1</dim>
					<dim>1</dim>
					<dim>384</dim>
				</port>
			</output>
		</layer>
		<layer id="325" name="__module.encoder.layer.2.attention.self.key/aten::linear/Add" type="Add" version="opset1">
			<data auto_broadcast="numpy" />
			<input>
				<port id="0" precision="FP32">
					<dim>-1</dim>
					<dim>-1</dim>
					<dim>384</dim>
				</port>
				<port id="1" precision="FP32">
					<dim>1</dim>
					<dim>1</dim>
					<dim>384</dim>
				</port>
			</input>
			<output>
				<port id="2" precision="FP32" names="292,x.29">
					<dim>-1</dim>
					<dim>-1</dim>
					<dim>384</dim>
				</port>
			</output>
		</layer>
		<layer id="326" name="__module.encoder.layer.2.attention.self.key/aten::linear/Add/fq_output_0/input_low" type="Const" version="opset1">
			<data element_type="f32" shape="" offset="15980016" size="4" />
			<output>
				<port id="0" precision="FP32" />
			</output>
		</layer>
		<layer id="327" name="__module.encoder.layer.2.attention.self.key/aten::linear/Add/fq_output_0/input_high" type="Const" version="opset1">
			<data element_type="f32" shape="" offset="15980020" size="4" />
			<output>
				<port id="0" precision="FP32" />
			</output>
		</layer>
		<layer id="328" name="__module.encoder.layer.2.attention.self.key/aten::linear/Add/fq_output_0/output_low" type="Const" version="opset1">
			<data element_type="f32" shape="" offset="15980016" size="4" />
			<output>
				<port id="0" precision="FP32" />
			</output>
		</layer>
		<layer id="329" name="__module.encoder.layer.2.attention.self.key/aten::linear/Add/fq_output_0/output_high" type="Const" version="opset1">
			<data element_type="f32" shape="" offset="15980020" size="4" />
			<output>
				<port id="0" precision="FP32" />
			</output>
		</layer>
		<layer id="330" name="__module.encoder.layer.2.attention.self.key/aten::linear/Add/fq_output_0" type="FakeQuantize" version="opset1">
			<data levels="256" auto_broadcast="numpy" />
			<input>
				<port id="0" precision="FP32">
					<dim>-1</dim>
					<dim>-1</dim>
					<dim>384</dim>
				</port>
				<port id="1" precision="FP32" />
				<port id="2" precision="FP32" />
				<port id="3" precision="FP32" />
				<port id="4" precision="FP32" />
			</input>
			<output>
				<port id="5" precision="FP32">
					<dim>-1</dim>
					<dim>-1</dim>
					<dim>384</dim>
				</port>
			</output>
		</layer>
		<layer id="331" name="__module.encoder.layer.2.attention.self/prim::ListConstruct/Concat_1" type="Const" version="opset1">
			<data element_type="i64" shape="4" offset="12201240" size="32" />
			<output>
				<port id="0" precision="I64">
					<dim>4</dim>
				</port>
			</output>
		</layer>
		<layer id="332" name="__module.encoder.layer.2.attention.self/aten::view/Reshape_1" type="Reshape" version="opset1">
			<data special_zero="true" />
			<input>
				<port id="0" precision="FP32">
					<dim>-1</dim>
					<dim>-1</dim>
					<dim>384</dim>
				</port>
				<port id="1" precision="I64">
					<dim>4</dim>
				</port>
			</input>
			<output>
				<port id="2" precision="FP32" names="296,x.31">
					<dim>-1</dim>
					<dim>-1</dim>
					<dim>12</dim>
					<dim>32</dim>
				</port>
			</output>
		</layer>
		<layer id="333" name="Constant_564869" type="Const" version="opset1">
			<data element_type="i64" shape="4" offset="12201272" size="32" />
			<output>
				<port id="0" precision="I64" names="297">
					<dim>4</dim>
				</port>
			</output>
		</layer>
		<layer id="334" name="__module.encoder.layer.2.attention.self/aten::permute/Transpose_1" type="Transpose" version="opset1">
			<input>
				<port id="0" precision="FP32">
					<dim>-1</dim>
					<dim>-1</dim>
					<dim>12</dim>
					<dim>32</dim>
				</port>
				<port id="1" precision="I64">
					<dim>4</dim>
				</port>
			</input>
			<output>
				<port id="2" precision="FP32" names="298">
					<dim>-1</dim>
					<dim>12</dim>
					<dim>-1</dim>
					<dim>32</dim>
				</port>
			</output>
		</layer>
		<layer id="335" name="Constant_3348795" type="Const" version="opset1">
			<data element_type="i8" shape="384, 384" offset="15980024" size="147456" />
			<output>
				<port id="0" precision="I8">
					<dim>384</dim>
					<dim>384</dim>
				</port>
			</output>
		</layer>
		<layer id="336" name="Convert_3348796" type="Convert" version="opset1">
			<data destination_type="f32" />
			<input>
				<port id="0" precision="I8">
					<dim>384</dim>
					<dim>384</dim>
				</port>
			</input>
			<output>
				<port id="1" precision="FP32">
					<dim>384</dim>
					<dim>384</dim>
				</port>
			</output>
		</layer>
		<layer id="337" name="Constant_3348797" type="Const" version="opset1">
			<data element_type="f32" shape="384, 1" offset="16127480" size="1536" />
			<output>
				<port id="0" precision="FP32">
					<dim>384</dim>
					<dim>1</dim>
				</port>
			</output>
		</layer>
		<layer id="338" name="__module.encoder.layer.2.attention.self.value/aten::linear/MatMul/fq_weights_1" type="Multiply" version="opset1">
			<data auto_broadcast="numpy" />
			<input>
				<port id="0" precision="FP32">
					<dim>384</dim>
					<dim>384</dim>
				</port>
				<port id="1" precision="FP32">
					<dim>384</dim>
					<dim>1</dim>
				</port>
			</input>
			<output>
				<port id="2" precision="FP32">
					<dim>384</dim>
					<dim>384</dim>
				</port>
			</output>
		</layer>
		<layer id="339" name="__module.encoder.layer.2.attention.self.value/aten::linear/MatMul" type="MatMul" version="opset1">
			<data transpose_a="false" transpose_b="true" />
			<input>
				<port id="0" precision="FP32">
					<dim>-1</dim>
					<dim>-1</dim>
					<dim>384</dim>
				</port>
				<port id="1" precision="FP32">
					<dim>384</dim>
					<dim>384</dim>
				</port>
			</input>
			<output>
				<port id="2" precision="FP32">
					<dim>-1</dim>
					<dim>-1</dim>
					<dim>384</dim>
				</port>
			</output>
		</layer>
		<layer id="340" name="Constant_573535" type="Const" version="opset1">
			<data element_type="f32" shape="1, 1, 384" offset="16129016" size="1536" />
			<output>
				<port id="0" precision="FP32">
					<dim>1</dim>
					<dim>1</dim>
					<dim>384</dim>
				</port>
			</output>
		</layer>
		<layer id="341" name="__module.encoder.layer.2.attention.self.value/aten::linear/Add" type="Add" version="opset1">
			<data auto_broadcast="numpy" />
			<input>
				<port id="0" precision="FP32">
					<dim>-1</dim>
					<dim>-1</dim>
					<dim>384</dim>
				</port>
				<port id="1" precision="FP32">
					<dim>1</dim>
					<dim>1</dim>
					<dim>384</dim>
				</port>
			</input>
			<output>
				<port id="2" precision="FP32" names="301,x.33">
					<dim>-1</dim>
					<dim>-1</dim>
					<dim>384</dim>
				</port>
			</output>
		</layer>
		<layer id="342" name="__module.encoder.layer.2.attention.self/prim::ListConstruct/Concat_2" type="Const" version="opset1">
			<data element_type="i64" shape="4" offset="12201240" size="32" />
			<output>
				<port id="0" precision="I64">
					<dim>4</dim>
				</port>
			</output>
		</layer>
		<layer id="343" name="__module.encoder.layer.2.attention.self/aten::view/Reshape_2" type="Reshape" version="opset1">
			<data special_zero="true" />
			<input>
				<port id="0" precision="FP32">
					<dim>-1</dim>
					<dim>-1</dim>
					<dim>384</dim>
				</port>
				<port id="1" precision="I64">
					<dim>4</dim>
				</port>
			</input>
			<output>
				<port id="2" precision="FP32" names="305,x.35">
					<dim>-1</dim>
					<dim>-1</dim>
					<dim>12</dim>
					<dim>32</dim>
				</port>
			</output>
		</layer>
		<layer id="344" name="Constant_564892" type="Const" version="opset1">
			<data element_type="i64" shape="4" offset="12201272" size="32" />
			<output>
				<port id="0" precision="I64" names="306">
					<dim>4</dim>
				</port>
			</output>
		</layer>
		<layer id="345" name="__module.encoder.layer.2.attention.self/aten::permute/Transpose_2" type="Transpose" version="opset1">
			<input>
				<port id="0" precision="FP32">
					<dim>-1</dim>
					<dim>-1</dim>
					<dim>12</dim>
					<dim>32</dim>
				</port>
				<port id="1" precision="I64">
					<dim>4</dim>
				</port>
			</input>
			<output>
				<port id="2" precision="FP32" names="307">
					<dim>-1</dim>
					<dim>12</dim>
					<dim>-1</dim>
					<dim>32</dim>
				</port>
			</output>
		</layer>
		<layer id="346" name="__module.encoder.layer.2.attention.self/aten::scaled_dot_product_attention/ScaledDotProductAttention" type="ScaledDotProductAttention" version="opset13">
			<data causal="false" />
			<input>
				<port id="0" precision="FP32">
					<dim>-1</dim>
					<dim>12</dim>
					<dim>-1</dim>
					<dim>32</dim>
				</port>
				<port id="1" precision="FP32">
					<dim>-1</dim>
					<dim>12</dim>
					<dim>-1</dim>
					<dim>32</dim>
				</port>
				<port id="2" precision="FP32">
					<dim>-1</dim>
					<dim>12</dim>
					<dim>-1</dim>
					<dim>32</dim>
				</port>
				<port id="3" precision="FP32">
					<dim>-1</dim>
					<dim>1</dim>
					<dim>-1</dim>
					<dim>-1</dim>
				</port>
			</input>
			<output>
				<port id="4" precision="FP32" names="308,attn_output.9">
					<dim>-1</dim>
					<dim>12</dim>
					<dim>-1</dim>
					<dim>32</dim>
				</port>
			</output>
		</layer>
		<layer id="347" name="__module.encoder.layer.2.attention.self/aten::transpose/ScatterElementsUpdate" type="Const" version="opset1">
			<data element_type="i32" shape="4" offset="12502384" size="16" />
			<output>
				<port id="0" precision="I32">
					<dim>4</dim>
				</port>
			</output>
		</layer>
		<layer id="348" name="__module.encoder.layer.2.attention.self/aten::transpose/Transpose" type="Transpose" version="opset1">
			<input>
				<port id="0" precision="FP32">
					<dim>-1</dim>
					<dim>12</dim>
					<dim>-1</dim>
					<dim>32</dim>
				</port>
				<port id="1" precision="I32">
					<dim>4</dim>
				</port>
			</input>
			<output>
				<port id="2" precision="FP32" names="309,attn_output.11">
					<dim>-1</dim>
					<dim>-1</dim>
					<dim>12</dim>
					<dim>32</dim>
				</port>
			</output>
		</layer>
		<layer id="349" name="__module.encoder.layer.2.attention.self/aten::size/ShapeOf_6" type="ShapeOf" version="opset3">
			<data output_type="i64" />
			<input>
				<port id="0" precision="FP32">
					<dim>-1</dim>
					<dim>-1</dim>
					<dim>384</dim>
				</port>
			</input>
			<output>
				<port id="1" precision="I64">
					<dim>3</dim>
				</port>
			</output>
		</layer>
		<layer id="350" name="Constant_572618" type="Const" version="opset1">
			<data element_type="i64" shape="2" offset="12502400" size="16" />
			<output>
				<port id="0" precision="I64">
					<dim>2</dim>
				</port>
			</output>
		</layer>
		<layer id="351" name="Constant_572619" type="Const" version="opset1">
			<data element_type="i64" shape="" offset="12046068" size="8" />
			<output>
				<port id="0" precision="I64" />
			</output>
		</layer>
		<layer id="352" name="Gather_572620" type="Gather" version="opset8">
			<data batch_dims="0" />
			<input>
				<port id="0" precision="I64">
					<dim>3</dim>
				</port>
				<port id="1" precision="I64">
					<dim>2</dim>
				</port>
				<port id="2" precision="I64" />
			</input>
			<output>
				<port id="3" precision="I64">
					<dim>2</dim>
				</port>
			</output>
		</layer>
		<layer id="353" name="__module.encoder.layer.2.attention.self/prim::ListConstruct/Concat_3" type="Concat" version="opset1">
			<data axis="0" />
			<input>
				<port id="0" precision="I64">
					<dim>2</dim>
				</port>
				<port id="1" precision="I64">
					<dim>1</dim>
				</port>
			</input>
			<output>
				<port id="2" precision="I64" names="310">
					<dim>3</dim>
				</port>
			</output>
		</layer>
		<layer id="354" name="__module.encoder.layer.2.attention.self/aten::reshape/Reshape" type="Reshape" version="opset1">
			<data special_zero="false" />
			<input>
				<port id="0" precision="FP32">
					<dim>-1</dim>
					<dim>-1</dim>
					<dim>12</dim>
					<dim>32</dim>
				</port>
				<port id="1" precision="I64">
					<dim>3</dim>
				</port>
			</input>
			<output>
				<port id="2" precision="FP32" names="311">
					<dim>-1</dim>
					<dim>-1</dim>
					<dim>384</dim>
				</port>
			</output>
		</layer>
		<layer id="355" name="__module.encoder.layer.2.attention.self/aten::reshape/Reshape_0_0/nncf_smooth_quant/scale" type="Const" version="opset1">
			<data element_type="f32" shape="1, 1, 384" offset="16130552" size="1536" />
			<output>
				<port id="0" precision="FP32">
					<dim>1</dim>
					<dim>1</dim>
					<dim>384</dim>
				</port>
			</output>
		</layer>
		<layer id="356" name="__module.encoder.layer.2.attention.self/aten::reshape/Reshape_0_0/nncf_smooth_quant" type="Multiply" version="opset1">
			<data auto_broadcast="numpy" />
			<input>
				<port id="0" precision="FP32">
					<dim>-1</dim>
					<dim>-1</dim>
					<dim>384</dim>
				</port>
				<port id="1" precision="FP32">
					<dim>1</dim>
					<dim>1</dim>
					<dim>384</dim>
				</port>
			</input>
			<output>
				<port id="2" precision="FP32">
					<dim>-1</dim>
					<dim>-1</dim>
					<dim>384</dim>
				</port>
			</output>
		</layer>
		<layer id="357" name="__module.encoder.layer.2.attention.self/aten::reshape/Reshape_0_0/nncf_smooth_quant/fq_output_0/input_low" type="Const" version="opset1">
			<data element_type="f32" shape="" offset="16132088" size="4" />
			<output>
				<port id="0" precision="FP32" />
			</output>
		</layer>
		<layer id="358" name="__module.encoder.layer.2.attention.self/aten::reshape/Reshape_0_0/nncf_smooth_quant/fq_output_0/input_high" type="Const" version="opset1">
			<data element_type="f32" shape="" offset="16132092" size="4" />
			<output>
				<port id="0" precision="FP32" />
			</output>
		</layer>
		<layer id="359" name="__module.encoder.layer.2.attention.self/aten::reshape/Reshape_0_0/nncf_smooth_quant/fq_output_0/output_low" type="Const" version="opset1">
			<data element_type="f32" shape="" offset="16132088" size="4" />
			<output>
				<port id="0" precision="FP32" />
			</output>
		</layer>
		<layer id="360" name="__module.encoder.layer.2.attention.self/aten::reshape/Reshape_0_0/nncf_smooth_quant/fq_output_0/output_high" type="Const" version="opset1">
			<data element_type="f32" shape="" offset="16132092" size="4" />
			<output>
				<port id="0" precision="FP32" />
			</output>
		</layer>
		<layer id="361" name="__module.encoder.layer.2.attention.self/aten::reshape/Reshape_0_0/nncf_smooth_quant/fq_output_0" type="FakeQuantize" version="opset1">
			<data levels="256" auto_broadcast="numpy" />
			<input>
				<port id="0" precision="FP32">
					<dim>-1</dim>
					<dim>-1</dim>
					<dim>384</dim>
				</port>
				<port id="1" precision="FP32" />
				<port id="2" precision="FP32" />
				<port id="3" precision="FP32" />
				<port id="4" precision="FP32" />
			</input>
			<output>
				<port id="5" precision="FP32">
					<dim>-1</dim>
					<dim>-1</dim>
					<dim>384</dim>
				</port>
			</output>
		</layer>
		<layer id="362" name="Constant_3348799" type="Const" version="opset1">
			<data element_type="i8" shape="384, 384" offset="16132096" size="147456" />
			<output>
				<port id="0" precision="I8">
					<dim>384</dim>
					<dim>384</dim>
				</port>
			</output>
		</layer>
		<layer id="363" name="Convert_3348800" type="Convert" version="opset1">
			<data destination_type="f32" />
			<input>
				<port id="0" precision="I8">
					<dim>384</dim>
					<dim>384</dim>
				</port>
			</input>
			<output>
				<port id="1" precision="FP32">
					<dim>384</dim>
					<dim>384</dim>
				</port>
			</output>
		</layer>
		<layer id="364" name="Constant_3348801" type="Const" version="opset1">
			<data element_type="f32" shape="384, 1" offset="16279552" size="1536" />
			<output>
				<port id="0" precision="FP32">
					<dim>384</dim>
					<dim>1</dim>
				</port>
			</output>
		</layer>
		<layer id="365" name="__module.encoder.layer.2.attention.output.dense/aten::linear/MatMul/fq_weights_1" type="Multiply" version="opset1">
			<data auto_broadcast="numpy" />
			<input>
				<port id="0" precision="FP32">
					<dim>384</dim>
					<dim>384</dim>
				</port>
				<port id="1" precision="FP32">
					<dim>384</dim>
					<dim>1</dim>
				</port>
			</input>
			<output>
				<port id="2" precision="FP32">
					<dim>384</dim>
					<dim>384</dim>
				</port>
			</output>
		</layer>
		<layer id="366" name="__module.encoder.layer.2.attention.output.dense/aten::linear/MatMul" type="MatMul" version="opset1">
			<data transpose_a="false" transpose_b="true" />
			<input>
				<port id="0" precision="FP32">
					<dim>-1</dim>
					<dim>-1</dim>
					<dim>384</dim>
				</port>
				<port id="1" precision="FP32">
					<dim>384</dim>
					<dim>384</dim>
				</port>
			</input>
			<output>
				<port id="2" precision="FP32">
					<dim>-1</dim>
					<dim>-1</dim>
					<dim>384</dim>
				</port>
			</output>
		</layer>
		<layer id="367" name="Constant_573536" type="Const" version="opset1">
			<data element_type="f32" shape="1, 1, 384" offset="16281088" size="1536" />
			<output>
				<port id="0" precision="FP32">
					<dim>1</dim>
					<dim>1</dim>
					<dim>384</dim>
				</port>
			</output>
		</layer>
		<layer id="368" name="__module.encoder.layer.2.attention.output.dense/aten::linear/Add" type="Add" version="opset1">
			<data auto_broadcast="numpy" />
			<input>
				<port id="0" precision="FP32">
					<dim>-1</dim>
					<dim>-1</dim>
					<dim>384</dim>
				</port>
				<port id="1" precision="FP32">
					<dim>1</dim>
					<dim>1</dim>
					<dim>384</dim>
				</port>
			</input>
			<output>
				<port id="2" precision="FP32" names="317,input.11">
					<dim>-1</dim>
					<dim>-1</dim>
					<dim>384</dim>
				</port>
			</output>
		</layer>
		<layer id="369" name="__module.encoder.layer.2.attention.output/aten::add/Add" type="Add" version="opset1">
			<data auto_broadcast="numpy" />
			<input>
				<port id="0" precision="FP32">
					<dim>-1</dim>
					<dim>-1</dim>
					<dim>384</dim>
				</port>
				<port id="1" precision="FP32">
					<dim>-1</dim>
					<dim>-1</dim>
					<dim>384</dim>
				</port>
			</input>
			<output>
				<port id="2" precision="FP32" names="319">
					<dim>-1</dim>
					<dim>-1</dim>
					<dim>384</dim>
				</port>
			</output>
		</layer>
		<layer id="370" name="__module.encoder.layer.2.attention.output.LayerNorm/aten::layer_norm/Multiply" type="Const" version="opset1">
			<data element_type="i32" shape="1" offset="12046084" size="4" />
			<output>
				<port id="0" precision="I32">
					<dim>1</dim>
				</port>
			</output>
		</layer>
		<layer id="371" name="__module.encoder.layer.2.attention.output.LayerNorm/aten::layer_norm/MVN" type="MVN" version="opset6">
			<data eps="9.999999960041972e-13" normalize_variance="true" eps_mode="INSIDE_SQRT" />
			<input>
				<port id="0" precision="FP32">
					<dim>-1</dim>
					<dim>-1</dim>
					<dim>384</dim>
				</port>
				<port id="1" precision="I32">
					<dim>1</dim>
				</port>
			</input>
			<output>
				<port id="2" precision="FP32">
					<dim>-1</dim>
					<dim>-1</dim>
					<dim>384</dim>
…
		<edge from-layer="808" from-port="0" to-layer="809" to-port="1" />
		<edge from-layer="809" from-port="2" to-layer="810" to-port="2" />
		<edge from-layer="810" from-port="4" to-layer="812" to-port="0" />
		<edge from-layer="811" from-port="0" to-layer="812" to-port="1" />
		<edge from-layer="812" from-port="2" to-layer="818" to-port="0" />
		<edge from-layer="813" from-port="1" to-layer="816" to-port="0" />
		<edge from-layer="814" from-port="0" to-layer="816" to-port="1" />
		<edge from-layer="815" from-port="0" to-layer="816" to-port="2" />
		<edge from-layer="816" from-port="3" to-layer="817" to-port="0" />
		<edge from-layer="817" from-port="2" to-layer="818" to-port="1" />
		<edge from-layer="818" from-port="2" to-layer="820" to-port="0" />
		<edge from-layer="819" from-port="0" to-layer="820" to-port="1" />
		<edge from-layer="820" from-port="2" to-layer="825" to-port="0" />
		<edge from-layer="821" from-port="0" to-layer="825" to-port="1" />
		<edge from-layer="822" from-port="0" to-layer="825" to-port="2" />
		<edge from-layer="823" from-port="0" to-layer="825" to-port="3" />
		<edge from-layer="824" from-port="0" to-layer="825" to-port="4" />
		<edge from-layer="825" from-port="5" to-layer="830" to-port="0" />
		<edge from-layer="826" from-port="0" to-layer="827" to-port="0" />
		<edge from-layer="827" from-port="1" to-layer="829" to-port="0" />
		<edge from-layer="828" from-port="0" to-layer="829" to-port="1" />
		<edge from-layer="829" from-port="2" to-layer="830" to-port="1" />
		<edge from-layer="830" from-port="2" to-layer="832" to-port="0" />
		<edge from-layer="831" from-port="0" to-layer="832" to-port="1" />
		<edge from-layer="832" from-port="2" to-layer="833" to-port="0" />
		<edge from-layer="833" from-port="2" to-layer="835" to-port="0" />
		<edge from-layer="834" from-port="0" to-layer="835" to-port="1" />
		<edge from-layer="835" from-port="2" to-layer="837" to-port="0" />
		<edge from-layer="836" from-port="0" to-layer="837" to-port="1" />
		<edge from-layer="837" from-port="2" to-layer="839" to-port="0" />
		<edge from-layer="838" from-port="0" to-layer="839" to-port="1" />
		<edge from-layer="839" from-port="2" to-layer="841" to-port="0" />
		<edge from-layer="839" from-port="2" to-layer="869" to-port="1" />
		<edge from-layer="840" from-port="0" to-layer="841" to-port="1" />
		<edge from-layer="841" from-port="2" to-layer="846" to-port="0" />
		<edge from-layer="842" from-port="0" to-layer="846" to-port="1" />
		<edge from-layer="843" from-port="0" to-layer="846" to-port="2" />
		<edge from-layer="844" from-port="0" to-layer="846" to-port="3" />
		<edge from-layer="845" from-port="0" to-layer="846" to-port="4" />
		<edge from-layer="846" from-port="5" to-layer="851" to-port="0" />
		<edge from-layer="847" from-port="0" to-layer="848" to-port="0" />
		<edge from-layer="848" from-port="1" to-layer="850" to-port="0" />
		<edge from-layer="849" from-port="0" to-layer="850" to-port="1" />
		<edge from-layer="850" from-port="2" to-layer="851" to-port="1" />
		<edge from-layer="851" from-port="2" to-layer="853" to-port="0" />
		<edge from-layer="852" from-port="0" to-layer="853" to-port="1" />
		<edge from-layer="853" from-port="2" to-layer="854" to-port="0" />
		<edge from-layer="854" from-port="1" to-layer="856" to-port="0" />
		<edge from-layer="855" from-port="0" to-layer="856" to-port="1" />
		<edge from-layer="856" from-port="2" to-layer="861" to-port="0" />
		<edge from-layer="857" from-port="0" to-layer="861" to-port="1" />
		<edge from-layer="858" from-port="0" to-layer="861" to-port="2" />
		<edge from-layer="859" from-port="0" to-layer="861" to-port="3" />
		<edge from-layer="860" from-port="0" to-layer="861" to-port="4" />
		<edge from-layer="861" from-port="5" to-layer="866" to-port="0" />
		<edge from-layer="862" from-port="0" to-layer="863" to-port="0" />
		<edge from-layer="863" from-port="1" to-layer="865" to-port="0" />
		<edge from-layer="864" from-port="0" to-layer="865" to-port="1" />
		<edge from-layer="865" from-port="2" to-layer="866" to-port="1" />
		<edge from-layer="866" from-port="2" to-layer="868" to-port="0" />
		<edge from-layer="867" from-port="0" to-layer="868" to-port="1" />
		<edge from-layer="868" from-port="2" to-layer="869" to-port="0" />
		<edge from-layer="869" from-port="2" to-layer="871" to-port="0" />
		<edge from-layer="870" from-port="0" to-layer="871" to-port="1" />
		<edge from-layer="871" from-port="2" to-layer="873" to-port="0" />
		<edge from-layer="872" from-port="0" to-layer="873" to-port="1" />
		<edge from-layer="873" from-port="2" to-layer="875" to-port="0" />
		<edge from-layer="874" from-port="0" to-layer="875" to-port="1" />
		<edge from-layer="875" from-port="2" to-layer="877" to-port="0" />
		<edge from-layer="875" from-port="2" to-layer="929" to-port="0" />
		<edge from-layer="875" from-port="2" to-layer="949" to-port="1" />
		<edge from-layer="876" from-port="0" to-layer="877" to-port="1" />
		<edge from-layer="877" from-port="2" to-layer="882" to-port="0" />
		<edge from-layer="878" from-port="0" to-layer="882" to-port="1" />
		<edge from-layer="879" from-port="0" to-layer="882" to-port="2" />
		<edge from-layer="880" from-port="0" to-layer="882" to-port="3" />
		<edge from-layer="881" from-port="0" to-layer="882" to-port="4" />
		<edge from-layer="882" from-port="5" to-layer="887" to-port="0" />
		<edge from-layer="882" from-port="5" to-layer="903" to-port="0" />
		<edge from-layer="882" from-port="5" to-layer="919" to-port="0" />
		<edge from-layer="883" from-port="0" to-layer="884" to-port="0" />
		<edge from-layer="884" from-port="1" to-layer="886" to-port="0" />
		<edge from-layer="885" from-port="0" to-layer="886" to-port="1" />
		<edge from-layer="886" from-port="2" to-layer="887" to-port="1" />
		<edge from-layer="887" from-port="2" to-layer="889" to-port="0" />
		<edge from-layer="888" from-port="0" to-layer="889" to-port="1" />
		<edge from-layer="889" from-port="2" to-layer="894" to-port="0" />
		<edge from-layer="890" from-port="0" to-layer="894" to-port="1" />
		<edge from-layer="891" from-port="0" to-layer="894" to-port="2" />
		<edge from-layer="892" from-port="0" to-layer="894" to-port="3" />
		<edge from-layer="893" from-port="0" to-layer="894" to-port="4" />
		<edge from-layer="894" from-port="5" to-layer="896" to-port="0" />
		<edge from-layer="895" from-port="0" to-layer="896" to-port="1" />
		<edge from-layer="896" from-port="2" to-layer="898" to-port="0" />
		<edge from-layer="897" from-port="0" to-layer="898" to-port="1" />
		<edge from-layer="898" from-port="2" to-layer="926" to-port="0" />
		<edge from-layer="899" from-port="0" to-layer="900" to-port="0" />
		<edge from-layer="900" from-port="1" to-layer="902" to-port="0" />
		<edge from-layer="901" from-port="0" to-layer="902" to-port="1" />
		<edge from-layer="902" from-port="2" to-layer="903" to-port="1" />
		<edge from-layer="903" from-port="2" to-layer="905" to-port="0" />
		<edge from-layer="904" from-port="0" to-layer="905" to-port="1" />
		<edge from-layer="905" from-port="2" to-layer="910" to-port="0" />
		<edge from-layer="906" from-port="0" to-layer="910" to-port="1" />
		<edge from-layer="907" from-port="0" to-layer="910" to-port="2" />
		<edge from-layer="908" from-port="0" to-layer="910" to-port="3" />
		<edge from-layer="909" from-port="0" to-layer="910" to-port="4" />
		<edge from-layer="910" from-port="5" to-layer="912" to-port="0" />
		<edge from-layer="911" from-port="0" to-layer="912" to-port="1" />
		<edge from-layer="912" from-port="2" to-layer="914" to-port="0" />
		<edge from-layer="913" from-port="0" to-layer="914" to-port="1" />
		<edge from-layer="914" from-port="2" to-layer="926" to-port="1" />
		<edge from-layer="915" from-port="0" to-layer="916" to-port="0" />
		<edge from-layer="916" from-port="1" to-layer="918" to-port="0" />
		<edge from-layer="917" from-port="0" to-layer="918" to-port="1" />
		<edge from-layer="918" from-port="2" to-layer="919" to-port="1" />
		<edge from-layer="919" from-port="2" to-layer="921" to-port="0" />
		<edge from-layer="920" from-port="0" to-layer="921" to-port="1" />
		<edge from-layer="921" from-port="2" to-layer="923" to-port="0" />
		<edge from-layer="922" from-port="0" to-layer="923" to-port="1" />
		<edge from-layer="923" from-port="2" to-layer="925" to-port="0" />
		<edge from-layer="924" from-port="0" to-layer="925" to-port="1" />
		<edge from-layer="925" from-port="2" to-layer="926" to-port="2" />
		<edge from-layer="926" from-port="4" to-layer="928" to-port="0" />
		<edge from-layer="927" from-port="0" to-layer="928" to-port="1" />
		<edge from-layer="928" from-port="2" to-layer="934" to-port="0" />
		<edge from-layer="929" from-port="1" to-layer="932" to-port="0" />
		<edge from-layer="930" from-port="0" to-layer="932" to-port="1" />
		<edge from-layer="931" from-port="0" to-layer="932" to-port="2" />
		<edge from-layer="932" from-port="3" to-layer="933" to-port="0" />
		<edge from-layer="933" from-port="2" to-layer="934" to-port="1" />
		<edge from-layer="934" from-port="2" to-layer="936" to-port="0" />
		<edge from-layer="935" from-port="0" to-layer="936" to-port="1" />
		<edge from-layer="936" from-port="2" to-layer="941" to-port="0" />
		<edge from-layer="937" from-port="0" to-layer="941" to-port="1" />
		<edge from-layer="938" from-port="0" to-layer="941" to-port="2" />
		<edge from-layer="939" from-port="0" to-layer="941" to-port="3" />
		<edge from-layer="940" from-port="0" to-layer="941" to-port="4" />
		<edge from-layer="941" from-port="5" to-layer="946" to-port="0" />
		<edge from-layer="942" from-port="0" to-layer="943" to-port="0" />
		<edge from-layer="943" from-port="1" to-layer="945" to-port="0" />
		<edge from-layer="944" from-port="0" to-layer="945" to-port="1" />
		<edge from-layer="945" from-port="2" to-layer="946" to-port="1" />
		<edge from-layer="946" from-port="2" to-layer="948" to-port="0" />
		<edge from-layer="947" from-port="0" to-layer="948" to-port="1" />
		<edge from-layer="948" from-port="2" to-layer="949" to-port="0" />
		<edge from-layer="949" from-port="2" to-layer="951" to-port="0" />
		<edge from-layer="950" from-port="0" to-layer="951" to-port="1" />
		<edge from-layer="951" from-port="2" to-layer="953" to-port="0" />
		<edge from-layer="952" from-port="0" to-layer="953" to-port="1" />
		<edge from-layer="953" from-port="2" to-layer="955" to-port="0" />
		<edge from-layer="954" from-port="0" to-layer="955" to-port="1" />
		<edge from-layer="955" from-port="2" to-layer="957" to-port="0" />
		<edge from-layer="955" from-port="2" to-layer="985" to-port="1" />
		<edge from-layer="956" from-port="0" to-layer="957" to-port="1" />
		<edge from-layer="957" from-port="2" to-layer="962" to-port="0" />
		<edge from-layer="958" from-port="0" to-layer="962" to-port="1" />
		<edge from-layer="959" from-port="0" to-layer="962" to-port="2" />
		<edge from-layer="960" from-port="0" to-layer="962" to-port="3" />
		<edge from-layer="961" from-port="0" to-layer="962" to-port="4" />
		<edge from-layer="962" from-port="5" to-layer="967" to-port="0" />
		<edge from-layer="963" from-port="0" to-layer="964" to-port="0" />
		<edge from-layer="964" from-port="1" to-layer="966" to-port="0" />
		<edge from-layer="965" from-port="0" to-layer="966" to-port="1" />
		<edge from-layer="966" from-port="2" to-layer="967" to-port="1" />
		<edge from-layer="967" from-port="2" to-layer="969" to-port="0" />
		<edge from-layer="968" from-port="0" to-layer="969" to-port="1" />
		<edge from-layer="969" from-port="2" to-layer="970" to-port="0" />
		<edge from-layer="970" from-port="1" to-layer="972" to-port="0" />
		<edge from-layer="971" from-port="0" to-layer="972" to-port="1" />
		<edge from-layer="972" from-port="2" to-layer="977" to-port="0" />
		<edge from-layer="973" from-port="0" to-layer="977" to-port="1" />
		<edge from-layer="974" from-port="0" to-layer="977" to-port="2" />
		<edge from-layer="975" from-port="0" to-layer="977" to-port="3" />
		<edge from-layer="976" from-port="0" to-layer="977" to-port="4" />
		<edge from-layer="977" from-port="5" to-layer="982" to-port="0" />
		<edge from-layer="978" from-port="0" to-layer="979" to-port="0" />
		<edge from-layer="979" from-port="1" to-layer="981" to-port="0" />
		<edge from-layer="980" from-port="0" to-layer="981" to-port="1" />
		<edge from-layer="981" from-port="2" to-layer="982" to-port="1" />
		<edge from-layer="982" from-port="2" to-layer="984" to-port="0" />
		<edge from-layer="983" from-port="0" to-layer="984" to-port="1" />
		<edge from-layer="984" from-port="2" to-layer="985" to-port="0" />
		<edge from-layer="985" from-port="2" to-layer="987" to-port="0" />
		<edge from-layer="986" from-port="0" to-layer="987" to-port="1" />
		<edge from-layer="987" from-port="2" to-layer="989" to-port="0" />
		<edge from-layer="988" from-port="0" to-layer="989" to-port="1" />
		<edge from-layer="989" from-port="2" to-layer="991" to-port="0" />
		<edge from-layer="990" from-port="0" to-layer="991" to-port="1" />
		<edge from-layer="991" from-port="2" to-layer="1045" to-port="0" />
		<edge from-layer="991" from-port="2" to-layer="1065" to-port="1" />
		<edge from-layer="991" from-port="2" to-layer="993" to-port="0" />
		<edge from-layer="992" from-port="0" to-layer="993" to-port="1" />
		<edge from-layer="993" from-port="2" to-layer="998" to-port="0" />
		<edge from-layer="994" from-port="0" to-layer="998" to-port="1" />
		<edge from-layer="995" from-port="0" to-layer="998" to-port="2" />
		<edge from-layer="996" from-port="0" to-layer="998" to-port="3" />
		<edge from-layer="997" from-port="0" to-layer="998" to-port="4" />
		<edge from-layer="998" from-port="5" to-layer="1003" to-port="0" />
		<edge from-layer="998" from-port="5" to-layer="1035" to-port="0" />
		<edge from-layer="998" from-port="5" to-layer="1019" to-port="0" />
		<edge from-layer="999" from-port="0" to-layer="1000" to-port="0" />
		<edge from-layer="1000" from-port="1" to-layer="1002" to-port="0" />
		<edge from-layer="1001" from-port="0" to-layer="1002" to-port="1" />
		<edge from-layer="1002" from-port="2" to-layer="1003" to-port="1" />
		<edge from-layer="1003" from-port="2" to-layer="1005" to-port="0" />
		<edge from-layer="1004" from-port="0" to-layer="1005" to-port="1" />
		<edge from-layer="1005" from-port="2" to-layer="1010" to-port="0" />
		<edge from-layer="1006" from-port="0" to-layer="1010" to-port="1" />
		<edge from-layer="1007" from-port="0" to-layer="1010" to-port="2" />
		<edge from-layer="1008" from-port="0" to-layer="1010" to-port="3" />
		<edge from-layer="1009" from-port="0" to-layer="1010" to-port="4" />
		<edge from-layer="1010" from-port="5" to-layer="1012" to-port="0" />
		<edge from-layer="1011" from-port="0" to-layer="1012" to-port="1" />
		<edge from-layer="1012" from-port="2" to-layer="1014" to-port="0" />
		<edge from-layer="1013" from-port="0" to-layer="1014" to-port="1" />
		<edge from-layer="1014" from-port="2" to-layer="1042" to-port="0" />
		<edge from-layer="1015" from-port="0" to-layer="1016" to-port="0" />
		<edge from-layer="1016" from-port="1" to-layer="1018" to-port="0" />
		<edge from-layer="1017" from-port="0" to-layer="1018" to-port="1" />
		<edge from-layer="1018" from-port="2" to-layer="1019" to-port="1" />
		<edge from-layer="1019" from-port="2" to-layer="1021" to-port="0" />
		<edge from-layer="1020" from-port="0" to-layer="1021" to-port="1" />
		<edge from-layer="1021" from-port="2" to-layer="1026" to-port="0" />
		<edge from-layer="1022" from-port="0" to-layer="1026" to-port="1" />
		<edge from-layer="1023" from-port="0" to-layer="1026" to-port="2" />
		<edge from-layer="1024" from-port="0" to-layer="1026" to-port="3" />
		<edge from-layer="1025" from-port="0" to-layer="1026" to-port="4" />
		<edge from-layer="1026" from-port="5" to-layer="1028" to-port="0" />
		<edge from-layer="1027" from-port="0" to-layer="1028" to-port="1" />
		<edge from-layer="1028" from-port="2" to-layer="1030" to-port="0" />
		<edge from-layer="1029" from-port="0" to-layer="1030" to-port="1" />
		<edge from-layer="1030" from-port="2" to-layer="1042" to-port="1" />
		<edge from-layer="1031" from-port="0" to-layer="1032" to-port="0" />
		<edge from-layer="1032" from-port="1" to-layer="1034" to-port="0" />
		<edge from-layer="1033" from-port="0" to-layer="1034" to-port="1" />
		<edge from-layer="1034" from-port="2" to-layer="1035" to-port="1" />
		<edge from-layer="1035" from-port="2" to-layer="1037" to-port="0" />
		<edge from-layer="1036" from-port="0" to-layer="1037" to-port="1" />
		<edge from-layer="1037" from-port="2" to-layer="1039" to-port="0" />
		<edge from-layer="1038" from-port="0" to-layer="1039" to-port="1" />
		<edge from-layer="1039" from-port="2" to-layer="1041" to-port="0" />
		<edge from-layer="1040" from-port="0" to-layer="1041" to-port="1" />
		<edge from-layer="1041" from-port="2" to-layer="1042" to-port="2" />
		<edge from-layer="1042" from-port="4" to-layer="1044" to-port="0" />
		<edge from-layer="1043" from-port="0" to-layer="1044" to-port="1" />
		<edge from-layer="1044" from-port="2" to-layer="1050" to-port="0" />
		<edge from-layer="1045" from-port="1" to-layer="1048" to-port="0" />
		<edge from-layer="1046" from-port="0" to-layer="1048" to-port="1" />
		<edge from-layer="1047" from-port="0" to-layer="1048" to-port="2" />
		<edge from-layer="1048" from-port="3" to-layer="1049" to-port="0" />
		<edge from-layer="1049" from-port="2" to-layer="1050" to-port="1" />
		<edge from-layer="1050" from-port="2" to-layer="1052" to-port="0" />
		<edge from-layer="1051" from-port="0" to-layer="1052" to-port="1" />
		<edge from-layer="1052" from-port="2" to-layer="1057" to-port="0" />
		<edge from-layer="1053" from-port="0" to-layer="1057" to-port="1" />
		<edge from-layer="1054" from-port="0" to-layer="1057" to-port="2" />
		<edge from-layer="1055" from-port="0" to-layer="1057" to-port="3" />
		<edge from-layer="1056" from-port="0" to-layer="1057" to-port="4" />
		<edge from-layer="1057" from-port="5" to-layer="1062" to-port="0" />
		<edge from-layer="1058" from-port="0" to-layer="1059" to-port="0" />
		<edge from-layer="1059" from-port="1" to-layer="1061" to-port="0" />
		<edge from-layer="1060" from-port="0" to-layer="1061" to-port="1" />
		<edge from-layer="1061" from-port="2" to-layer="1062" to-port="1" />
		<edge from-layer="1062" from-port="2" to-layer="1064" to-port="0" />
		<edge from-layer="1063" from-port="0" to-layer="1064" to-port="1" />
		<edge from-layer="1064" from-port="2" to-layer="1065" to-port="0" />
		<edge from-layer="1065" from-port="2" to-layer="1067" to-port="0" />
		<edge from-layer="1066" from-port="0" to-layer="1067" to-port="1" />
		<edge from-layer="1067" from-port="2" to-layer="1069" to-port="0" />
		<edge from-layer="1068" from-port="0" to-layer="1069" to-port="1" />
		<edge from-layer="1069" from-port="2" to-layer="1071" to-port="0" />
		<edge from-layer="1070" from-port="0" to-layer="1071" to-port="1" />
		<edge from-layer="1071" from-port="2" to-layer="1073" to-port="0" />
		<edge from-layer="1071" from-port="2" to-layer="1101" to-port="1" />
		<edge from-layer="1072" from-port="0" to-layer="1073" to-port="1" />
		<edge from-layer="1073" from-port="2" to-layer="1078" to-port="0" />
		<edge from-layer="1074" from-port="0" to-layer="1078" to-port="1" />
		<edge from-layer="1075" from-port="0" to-layer="1078" to-port="2" />
		<edge from-layer="1076" from-port="0" to-layer="1078" to-port="3" />
		<edge from-layer="1077" from-port="0" to-layer="1078" to-port="4" />
		<edge from-layer="1078" from-port="5" to-layer="1083" to-port="0" />
		<edge from-layer="1079" from-port="0" to-layer="1080" to-port="0" />
		<edge from-layer="1080" from-port="1" to-layer="1082" to-port="0" />
		<edge from-layer="1081" from-port="0" to-layer="1082" to-port="1" />
		<edge from-layer="1082" from-port="2" to-layer="1083" to-port="1" />
		<edge from-layer="1083" from-port="2" to-layer="1085" to-port="0" />
		<edge from-layer="1084" from-port="0" to-layer="1085" to-port="1" />
		<edge from-layer="1085" from-port="2" to-layer="1086" to-port="0" />
		<edge from-layer="1086" from-port="1" to-layer="1088" to-port="0" />
		<edge from-layer="1087" from-port="0" to-layer="1088" to-port="1" />
		<edge from-layer="1088" from-port="2" to-layer="1093" to-port="0" />
		<edge from-layer="1089" from-port="0" to-layer="1093" to-port="1" />
		<edge from-layer="1090" from-port="0" to-layer="1093" to-port="2" />
		<edge from-layer="1091" from-port="0" to-layer="1093" to-port="3" />
		<edge from-layer="1092" from-port="0" to-layer="1093" to-port="4" />
		<edge from-layer="1093" from-port="5" to-layer="1098" to-port="0" />
		<edge from-layer="1094" from-port="0" to-layer="1095" to-port="0" />
		<edge from-layer="1095" from-port="1" to-layer="1097" to-port="0" />
		<edge from-layer="1096" from-port="0" to-layer="1097" to-port="1" />
		<edge from-layer="1097" from-port="2" to-layer="1098" to-port="1" />
		<edge from-layer="1098" from-port="2" to-layer="1100" to-port="0" />
		<edge from-layer="1099" from-port="0" to-layer="1100" to-port="1" />
		<edge from-layer="1100" from-port="2" to-layer="1101" to-port="0" />
		<edge from-layer="1101" from-port="2" to-layer="1103" to-port="0" />
		<edge from-layer="1102" from-port="0" to-layer="1103" to-port="1" />
		<edge from-layer="1103" from-port="2" to-layer="1105" to-port="0" />
		<edge from-layer="1104" from-port="0" to-layer="1105" to-port="1" />
		<edge from-layer="1105" from-port="2" to-layer="1107" to-port="0" />
		<edge from-layer="1106" from-port="0" to-layer="1107" to-port="1" />
		<edge from-layer="1107" from-port="2" to-layer="1109" to-port="0" />
		<edge from-layer="1107" from-port="2" to-layer="1161" to-port="0" />
		<edge from-layer="1107" from-port="2" to-layer="1181" to-port="1" />
		<edge from-layer="1108" from-port="0" to-layer="1109" to-port="1" />
		<edge from-layer="1109" from-port="2" to-layer="1114" to-port="0" />
		<edge from-layer="1110" from-port="0" to-layer="1114" to-port="1" />
		<edge from-layer="1111" from-port="0" to-layer="1114" to-port="2" />
		<edge from-layer="1112" from-port="0" to-layer="1114" to-port="3" />
		<edge from-layer="1113" from-port="0" to-layer="1114" to-port="4" />
		<edge from-layer="1114" from-port="5" to-layer="1119" to-port="0" />
		<edge from-layer="1114" from-port="5" to-layer="1135" to-port="0" />
		<edge from-layer="1114" from-port="5" to-layer="1151" to-port="0" />
		<edge from-layer="1115" from-port="0" to-layer="1116" to-port="0" />
		<edge from-layer="1116" from-port="1" to-layer="1118" to-port="0" />
		<edge from-layer="1117" from-port="0" to-layer="1118" to-port="1" />
		<edge from-layer="1118" from-port="2" to-layer="1119" to-port="1" />
		<edge from-layer="1119" from-port="2" to-layer="1121" to-port="0" />
		<edge from-layer="1120" from-port="0" to-layer="1121" to-port="1" />
		<edge from-layer="1121" from-port="2" to-layer="1126" to-port="0" />
		<edge from-layer="1122" from-port="0" to-layer="1126" to-port="1" />
		<edge from-layer="1123" from-port="0" to-layer="1126" to-port="2" />
		<edge from-layer="1124" from-port="0" to-layer="1126" to-port="3" />
		<edge from-layer="1125" from-port="0" to-layer="1126" to-port="4" />
		<edge from-layer="1126" from-port="5" to-layer="1128" to-port="0" />
		<edge from-layer="1127" from-port="0" to-layer="1128" to-port="1" />
		<edge from-layer="1128" from-port="2" to-layer="1130" to-port="0" />
		<edge from-layer="1129" from-port="0" to-layer="1130" to-port="1" />
		<edge from-layer="1130" from-port="2" to-layer="1158" to-port="0" />
		<edge from-layer="1131" from-port="0" to-layer="1132" to-port="0" />
		<edge from-layer="1132" from-port="1" to-layer="1134" to-port="0" />
		<edge from-layer="1133" from-port="0" to-layer="1134" to-port="1" />
		<edge from-layer="1134" from-port="2" to-layer="1135" to-port="1" />
		<edge from-layer="1135" from-port="2" to-layer="1137" to-port="0" />
		<edge from-layer="1136" from-port="0" to-layer="1137" to-port="1" />
		<edge from-layer="1137" from-port="2" to-layer="1142" to-port="0" />
		<edge from-layer="1138" from-port="0" to-layer="1142" to-port="1" />
		<edge from-layer="1139" from-port="0" to-layer="1142" to-port="2" />
		<edge from-layer="1140" from-port="0" to-layer="1142" to-port="3" />
		<edge from-layer="1141" from-port="0" to-layer="1142" to-port="4" />
		<edge from-layer="1142" from-port="5" to-layer="1144" to-port="0" />
		<edge from-layer="1143" from-port="0" to-layer="1144" to-port="1" />
		<edge from-layer="1144" from-port="2" to-layer="1146" to-port="0" />
		<edge from-layer="1145" from-port="0" to-layer="1146" to-port="1" />
		<edge from-layer="1146" from-port="2" to-layer="1158" to-port="1" />
		<edge from-layer="1147" from-port="0" to-layer="1148" to-port="0" />
		<edge from-layer="1148" from-port="1" to-layer="1150" to-port="0" />
		<edge from-layer="1149" from-port="0" to-layer="1150" to-port="1" />
		<edge from-layer="1150" from-port="2" to-layer="1151" to-port="1" />
		<edge from-layer="1151" from-port="2" to-layer="1153" to-port="0" />
		<edge from-layer="1152" from-port="0" to-layer="1153" to-port="1" />
		<edge from-layer="1153" from-port="2" to-layer="1155" to-port="0" />
		<edge from-layer="1154" from-port="0" to-layer="1155" to-port="1" />
		<edge from-layer="1155" from-port="2" to-layer="1157" to-port="0" />
		<edge from-layer="1156" from-port="0" to-layer="1157" to-port="1" />
		<edge from-layer="1157" from-port="2" to-layer="1158" to-port="2" />
		<edge from-layer="1158" from-port="4" to-layer="1160" to-port="0" />
		<edge from-layer="1159" from-port="0" to-layer="1160" to-port="1" />
		<edge from-layer="1160" from-port="2" to-layer="1166" to-port="0" />
		<edge from-layer="1161" from-port="1" to-layer="1164" to-port="0" />
		<edge from-layer="1162" from-port="0" to-layer="1164" to-port="1" />
		<edge from-layer="1163" from-port="0" to-layer="1164" to-port="2" />
		<edge from-layer="1164" from-port="3" to-layer="1165" to-port="0" />
		<edge from-layer="1165" from-port="2" to-layer="1166" to-port="1" />
		<edge from-layer="1166" from-port="2" to-layer="1168" to-port="0" />
		<edge from-layer="1167" from-port="0" to-layer="1168" to-port="1" />
		<edge from-layer="1168" from-port="2" to-layer="1173" to-port="0" />
		<edge from-layer="1169" from-port="0" to-layer="1173" to-port="1" />
		<edge from-layer="1170" from-port="0" to-layer="1173" to-port="2" />
		<edge from-layer="1171" from-port="0" to-layer="1173" to-port="3" />
		<edge from-layer="1172" from-port="0" to-layer="1173" to-port="4" />
		<edge from-layer="1173" from-port="5" to-layer="1178" to-port="0" />
		<edge from-layer="1174" from-port="0" to-layer="1175" to-port="0" />
		<edge from-layer="1175" from-port="1" to-layer="1177" to-port="0" />
		<edge from-layer="1176" from-port="0" to-layer="1177" to-port="1" />
		<edge from-layer="1177" from-port="2" to-layer="1178" to-port="1" />
		<edge from-layer="1178" from-port="2" to-layer="1180" to-port="0" />
		<edge from-layer="1179" from-port="0" to-layer="1180" to-port="1" />
		<edge from-layer="1180" from-port="2" to-layer="1181" to-port="0" />
		<edge from-layer="1181" from-port="2" to-layer="1183" to-port="0" />
		<edge from-layer="1182" from-port="0" to-layer="1183" to-port="1" />
		<edge from-layer="1183" from-port="2" to-layer="1185" to-port="0" />
		<edge from-layer="1184" from-port="0" to-layer="1185" to-port="1" />
		<edge from-layer="1185" from-port="2" to-layer="1187" to-port="0" />
		<edge from-layer="1186" from-port="0" to-layer="1187" to-port="1" />
		<edge from-layer="1187" from-port="2" to-layer="1189" to-port="0" />
		<edge from-layer="1187" from-port="2" to-layer="1217" to-port="1" />
		<edge from-layer="1188" from-port="0" to-layer="1189" to-port="1" />
		<edge from-layer="1189" from-port="2" to-layer="1194" to-port="0" />
		<edge from-layer="1190" from-port="0" to-layer="1194" to-port="1" />
		<edge from-layer="1191" from-port="0" to-layer="1194" to-port="2" />
		<edge from-layer="1192" from-port="0" to-layer="1194" to-port="3" />
		<edge from-layer="1193" from-port="0" to-layer="1194" to-port="4" />
		<edge from-layer="1194" from-port="5" to-layer="1199" to-port="0" />
		<edge from-layer="1195" from-port="0" to-layer="1196" to-port="0" />
		<edge from-layer="1196" from-port="1" to-layer="1198" to-port="0" />
		<edge from-layer="1197" from-port="0" to-layer="1198" to-port="1" />
		<edge from-layer="1198" from-port="2" to-layer="1199" to-port="1" />
		<edge from-layer="1199" from-port="2" to-layer="1201" to-port="0" />
		<edge from-layer="1200" from-port="0" to-layer="1201" to-port="1" />
		<edge from-layer="1201" from-port="2" to-layer="1202" to-port="0" />
		<edge from-layer="1202" from-port="1" to-layer="1204" to-port="0" />
		<edge from-layer="1203" from-port="0" to-layer="1204" to-port="1" />
		<edge from-layer="1204" from-port="2" to-layer="1209" to-port="0" />
		<edge from-layer="1205" from-port="0" to-layer="1209" to-port="1" />
		<edge from-layer="1206" from-port="0" to-layer="1209" to-port="2" />
		<edge from-layer="1207" from-port="0" to-layer="1209" to-port="3" />
		<edge from-layer="1208" from-port="0" to-layer="1209" to-port="4" />
		<edge from-layer="1209" from-port="5" to-layer="1214" to-port="0" />
		<edge from-layer="1210" from-port="0" to-layer="1211" to-port="0" />
		<edge from-layer="1211" from-port="1" to-layer="1213" to-port="0" />
		<edge from-layer="1212" from-port="0" to-layer="1213" to-port="1" />
		<edge from-layer="1213" from-port="2" to-layer="1214" to-port="1" />
		<edge from-layer="1214" from-port="2" to-layer="1216" to-port="0" />
		<edge from-layer="1215" from-port="0" to-layer="1216" to-port="1" />
		<edge from-layer="1216" from-port="2" to-layer="1217" to-port="0" />
		<edge from-layer="1217" from-port="2" to-layer="1219" to-port="0" />
		<edge from-layer="1218" from-port="0" to-layer="1219" to-port="1" />
		<edge from-layer="1219" from-port="2" to-layer="1221" to-port="0" />
		<edge from-layer="1220" from-port="0" to-layer="1221" to-port="1" />
		<edge from-layer="1221" from-port="2" to-layer="1223" to-port="0" />
		<edge from-layer="1222" from-port="0" to-layer="1223" to-port="1" />
		<edge from-layer="1223" from-port="2" to-layer="1225" to-port="0" />
		<edge from-layer="1223" from-port="2" to-layer="1297" to-port="1" />
		<edge from-layer="1223" from-port="2" to-layer="1277" to-port="0" />
		<edge from-layer="1224" from-port="0" to-layer="1225" to-port="1" />
		<edge from-layer="1225" from-port="2" to-layer="1230" to-port="0" />
		<edge from-layer="1226" from-port="0" to-layer="1230" to-port="1" />
		<edge from-layer="1227" from-port="0" to-layer="1230" to-port="2" />
		<edge from-layer="1228" from-port="0" to-layer="1230" to-port="3" />
		<edge from-layer="1229" from-port="0" to-layer="1230" to-port="4" />
		<edge from-layer="1230" from-port="5" to-layer="1235" to-port="0" />
		<edge from-layer="1230" from-port="5" to-layer="1267" to-port="0" />
		<edge from-layer="1230" from-port="5" to-layer="1251" to-port="0" />
		<edge from-layer="1231" from-port="0" to-layer="1232" to-port="0" />
		<edge from-layer="1232" from-port="1" to-layer="1234" to-port="0" />
		<edge from-layer="1233" from-port="0" to-layer="1234" to-port="1" />
		<edge from-layer="1234" from-port="2" to-layer="1235" to-port="1" />
		<edge from-layer="1235" from-port="2" to-layer="1237" to-port="0" />
		<edge from-layer="1236" from-port="0" to-layer="1237" to-port="1" />
		<edge from-layer="1237" from-port="2" to-layer="1242" to-port="0" />
		<edge from-layer="1238" from-port="0" to-layer="1242" to-port="1" />
		<edge from-layer="1239" from-port="0" to-layer="1242" to-port="2" />
		<edge from-layer="1240" from-port="0" to-layer="1242" to-port="3" />
		<edge from-layer="1241" from-port="0" to-layer="1242" to-port="4" />
		<edge from-layer="1242" from-port="5" to-layer="1244" to-port="0" />
		<edge from-layer="1243" from-port="0" to-layer="1244" to-port="1" />
		<edge from-layer="1244" from-port="2" to-layer="1246" to-port="0" />
		<edge from-layer="1245" from-port="0" to-layer="1246" to-port="1" />
		<edge from-layer="1246" from-port="2" to-layer="1274" to-port="0" />
		<edge from-layer="1247" from-port="0" to-layer="1248" to-port="0" />
		<edge from-layer="1248" from-port="1" to-layer="1250" to-port="0" />
		<edge from-layer="1249" from-port="0" to-layer="1250" to-port="1" />
		<edge from-layer="1250" from-port="2" to-layer="1251" to-port="1" />
		<edge from-layer="1251" from-port="2" to-layer="1253" to-port="0" />
		<edge from-layer="1252" from-port="0" to-layer="1253" to-port="1" />
		<edge from-layer="1253" from-port="2" to-layer="1258" to-port="0" />
		<edge from-layer="1254" from-port="0" to-layer="1258" to-port="1" />
		<edge from-layer="1255" from-port="0" to-layer="1258" to-port="2" />
		<edge from-layer="1256" from-port="0" to-layer="1258" to-port="3" />
		<edge from-layer="1257" from-port="0" to-layer="1258" to-port="4" />
		<edge from-layer="1258" from-port="5" to-layer="1260" to-port="0" />
		<edge from-layer="1259" from-port="0" to-layer="1260" to-port="1" />
		<edge from-layer="1260" from-port="2" to-layer="1262" to-port="0" />
		<edge from-layer="1261" from-port="0" to-layer="1262" to-port="1" />
		<edge from-layer="1262" from-port="2" to-layer="1274" to-port="1" />
		<edge from-layer="1263" from-port="0" to-layer="1264" to-port="0" />
		<edge from-layer="1264" from-port="1" to-layer="1266" to-port="0" />
		<edge from-layer="1265" from-port="0" to-layer="1266" to-port="1" />
		<edge from-layer="1266" from-port="2" to-layer="1267" to-port="1" />
		<edge from-layer="1267" from-port="2" to-layer="1269" to-port="0" />
		<edge from-layer="1268" from-port="0" to-layer="1269" to-port="1" />
		<edge from-layer="1269" from-port="2" to-layer="1271" to-port="0" />
		<edge from-layer="1270" from-port="0" to-layer="1271" to-port="1" />
		<edge from-layer="1271" from-port="2" to-layer="1273" to-port="0" />
		<edge from-layer="1272" from-port="0" to-layer="1273" to-port="1" />
		<edge from-layer="1273" from-port="2" to-layer="1274" to-port="2" />
		<edge from-layer="1274" from-port="4" to-layer="1276" to-port="0" />
		<edge from-layer="1275" from-port="0" to-layer="1276" to-port="1" />
		<edge from-layer="1276" from-port="2" to-layer="1282" to-port="0" />
		<edge from-layer="1277" from-port="1" to-layer="1280" to-port="0" />
		<edge from-layer="1278" from-port="0" to-layer="1280" to-port="1" />
		<edge from-layer="1279" from-port="0" to-layer="1280" to-port="2" />
		<edge from-layer="1280" from-port="3" to-layer="1281" to-port="0" />
		<edge from-layer="1281" from-port="2" to-layer="1282" to-port="1" />
		<edge from-layer="1282" from-port="2" to-layer="1284" to-port="0" />
		<edge from-layer="1283" from-port="0" to-layer="1284" to-port="1" />
		<edge from-layer="1284" from-port="2" to-layer="1289" to-port="0" />
		<edge from-layer="1285" from-port="0" to-layer="1289" to-port="1" />
		<edge from-layer="1286" from-port="0" to-layer="1289" to-port="2" />
		<edge from-layer="1287" from-port="0" to-layer="1289" to-port="3" />
		<edge from-layer="1288" from-port="0" to-layer="1289" to-port="4" />
		<edge from-layer="1289" from-port="5" to-layer="1294" to-port="0" />
		<edge from-layer="1290" from-port="0" to-layer="1291" to-port="0" />
		<edge from-layer="1291" from-port="1" to-layer="1293" to-port="0" />
		<edge from-layer="1292" from-port="0" to-layer="1293" to-port="1" />
		<edge from-layer="1293" from-port="2" to-layer="1294" to-port="1" />
		<edge from-layer="1294" from-port="2" to-layer="1296" to-port="0" />
		<edge from-layer="1295" from-port="0" to-layer="1296" to-port="1" />
		<edge from-layer="1296" from-port="2" to-layer="1297" to-port="0" />
		<edge from-layer="1297" from-port="2" to-layer="1299" to-port="0" />
		<edge from-layer="1298" from-port="0" to-layer="1299" to-port="1" />
		<edge from-layer="1299" from-port="2" to-layer="1301" to-port="0" />
		<edge from-layer="1300" from-port="0" to-layer="1301" to-port="1" />
		<edge from-layer="1301" from-port="2" to-layer="1303" to-port="0" />
		<edge from-layer="1302" from-port="0" to-layer="1303" to-port="1" />
		<edge from-layer="1303" from-port="2" to-layer="1305" to-port="0" />
		<edge from-layer="1303" from-port="2" to-layer="1333" to-port="1" />
		<edge from-layer="1304" from-port="0" to-layer="1305" to-port="1" />
		<edge from-layer="1305" from-port="2" to-layer="1310" to-port="0" />
		<edge from-layer="1306" from-port="0" to-layer="1310" to-port="1" />
		<edge from-layer="1307" from-port="0" to-layer="1310" to-port="2" />
		<edge from-layer="1308" from-port="0" to-layer="1310" to-port="3" />
		<edge from-layer="1309" from-port="0" to-layer="1310" to-port="4" />
		<edge from-layer="1310" from-port="5" to-layer="1315" to-port="0" />
		<edge from-layer="1311" from-port="0" to-layer="1312" to-port="0" />
		<edge from-layer="1312" from-port="1" to-layer="1314" to-port="0" />
		<edge from-layer="1313" from-port="0" to-layer="1314" to-port="1" />
		<edge from-layer="1314" from-port="2" to-layer="1315" to-port="1" />
		<edge from-layer="1315" from-port="2" to-layer="1317" to-port="0" />
		<edge from-layer="1316" from-port="0" to-layer="1317" to-port="1" />
		<edge from-layer="1317" from-port="2" to-layer="1318" to-port="0" />
		<edge from-layer="1318" from-port="1" to-layer="1320" to-port="0" />
		<edge from-layer="1319" from-port="0" to-layer="1320" to-port="1" />
		<edge from-layer="1320" from-port="2" to-layer="1325" to-port="0" />
		<edge from-layer="1321" from-port="0" to-layer="1325" to-port="1" />
		<edge from-layer="1322" from-port="0" to-layer="1325" to-port="2" />
		<edge from-layer="1323" from-port="0" to-layer="1325" to-port="3" />
		<edge from-layer="1324" from-port="0" to-layer="1325" to-port="4" />
		<edge from-layer="1325" from-port="5" to-layer="1330" to-port="0" />
		<edge from-layer="1326" from-port="0" to-layer="1327" to-port="0" />
		<edge from-layer="1327" from-port="1" to-layer="1329" to-port="0" />
		<edge from-layer="1328" from-port="0" to-layer="1329" to-port="1" />
		<edge from-layer="1329" from-port="2" to-layer="1330" to-port="1" />
		<edge from-layer="1330" from-port="2" to-layer="1332" to-port="0" />
		<edge from-layer="1331" from-port="0" to-layer="1332" to-port="1" />
		<edge from-layer="1332" from-port="2" to-layer="1333" to-port="0" />
		<edge from-layer="1333" from-port="2" to-layer="1335" to-port="0" />
		<edge from-layer="1334" from-port="0" to-layer="1335" to-port="1" />
		<edge from-layer="1335" from-port="2" to-layer="1337" to-port="0" />
		<edge from-layer="1336" from-port="0" to-layer="1337" to-port="1" />
		<edge from-layer="1337" from-port="2" to-layer="1339" to-port="0" />
		<edge from-layer="1338" from-port="0" to-layer="1339" to-port="1" />
		<edge from-layer="1339" from-port="2" to-layer="1341" to-port="0" />
		<edge from-layer="1339" from-port="2" to-layer="1413" to-port="1" />
		<edge from-layer="1339" from-port="2" to-layer="1393" to-port="0" />
		<edge from-layer="1340" from-port="0" to-layer="1341" to-port="1" />
		<edge from-layer="1341" from-port="2" to-layer="1346" to-port="0" />
		<edge from-layer="1342" from-port="0" to-layer="1346" to-port="1" />
		<edge from-layer="1343" from-port="0" to-layer="1346" to-port="2" />
		<edge from-layer="1344" from-port="0" to-layer="1346" to-port="3" />
		<edge from-layer="1345" from-port="0" to-layer="1346" to-port="4" />
		<edge from-layer="1346" from-port="5" to-layer="1367" to-port="0" />
		<edge from-layer="1346" from-port="5" to-layer="1383" to-port="0" />
		<edge from-layer="1346" from-port="5" to-layer="1351" to-port="0" />
		<edge from-layer="1347" from-port="0" to-layer="1348" to-port="0" />
		<edge from-layer="1348" from-port="1" to-layer="1350" to-port="0" />
		<edge from-layer="1349" from-port="0" to-layer="1350" to-port="1" />
		<edge from-layer="1350" from-port="2" to-layer="1351" to-port="1" />
		<edge from-layer="1351" from-port="2" to-layer="1353" to-port="0" />
		<edge from-layer="1352" from-port="0" to-layer="1353" to-port="1" />
		<edge from-layer="1353" from-port="2" to-layer="1358" to-port="0" />
		<edge from-layer="1354" from-port="0" to-layer="1358" to-port="1" />
		<edge from-layer="1355" from-port="0" to-layer="1358" to-port="2" />
		<edge from-layer="1356" from-port="0" to-layer="1358" to-port="3" />
		<edge from-layer="1357" from-port="0" to-layer="1358" to-port="4" />
		<edge from-layer="1358" from-port="5" to-layer="1360" to-port="0" />
		<edge from-layer="1359" from-port="0" to-layer="1360" to-port="1" />
		<edge from-layer="1360" from-port="2" to-layer="1362" to-port="0" />
		<edge from-layer="1361" from-port="0" to-layer="1362" to-port="1" />
		<edge from-layer="1362" from-port="2" to-layer="1390" to-port="0" />
		<edge from-layer="1363" from-port="0" to-layer="1364" to-port="0" />
		<edge from-layer="1364" from-port="1" to-layer="1366" to-port="0" />
		<edge from-layer="1365" from-port="0" to-layer="1366" to-port="1" />
		<edge from-layer="1366" from-port="2" to-layer="1367" to-port="1" />
		<edge from-layer="1367" from-port="2" to-layer="1369" to-port="0" />
		<edge from-layer="1368" from-port="0" to-layer="1369" to-port="1" />
		<edge from-layer="1369" from-port="2" to-layer="1374" to-port="0" />
		<edge from-layer="1370" from-port="0" to-layer="1374" to-port="1" />
		<edge from-layer="1371" from-port="0" to-layer="1374" to-port="2" />
		<edge from-layer="1372" from-port="0" to-layer="1374" to-port="3" />
		<edge from-layer="1373" from-port="0" to-layer="1374" to-port="4" />
		<edge from-layer="1374" from-port="5" to-layer="1376" to-port="0" />
		<edge from-layer="1375" from-port="0" to-layer="1376" to-port="1" />
		<edge from-layer="1376" from-port="2" to-layer="1378" to-port="0" />
		<edge from-layer="1377" from-port="0" to-layer="1378" to-port="1" />
		<edge from-layer="1378" from-port="2" to-layer="1390" to-port="1" />
		<edge from-layer="1379" from-port="0" to-layer="1380" to-port="0" />
		<edge from-layer="1380" from-port="1" to-layer="1382" to-port="0" />
		<edge from-layer="1381" from-port="0" to-layer="1382" to-port="1" />
		<edge from-layer="1382" from-port="2" to-layer="1383" to-port="1" />
		<edge from-layer="1383" from-port="2" to-layer="1385" to-port="0" />
		<edge from-layer="1384" from-port="0" to-layer="1385" to-port="1" />
		<edge from-layer="1385" from-port="2" to-layer="1387" to-port="0" />
		<edge from-layer="1386" from-port="0" to-layer="1387" to-port="1" />
		<edge from-layer="1387" from-port="2" to-layer="1389" to-port="0" />
		<edge from-layer="1388" from-port="0" to-layer="1389" to-port="1" />
		<edge from-layer="1389" from-port="2" to-layer="1390" to-port="2" />
		<edge from-layer="1390" from-port="4" to-layer="1392" to-port="0" />
		<edge from-layer="1391" from-port="0" to-layer="1392" to-port="1" />
		<edge from-layer="1392" from-port="2" to-layer="1398" to-port="0" />
		<edge from-layer="1393" from-port="1" to-layer="1396" to-port="0" />
		<edge from-layer="1394" from-port="0" to-layer="1396" to-port="1" />
		<edge from-layer="1395" from-port="0" to-layer="1396" to-port="2" />
		<edge from-layer="1396" from-port="3" to-layer="1397" to-port="0" />
		<edge from-layer="1397" from-port="2" to-layer="1398" to-port="1" />
		<edge from-layer="1398" from-port="2" to-layer="1400" to-port="0" />
		<edge from-layer="1399" from-port="0" to-layer="1400" to-port="1" />
		<edge from-layer="1400" from-port="2" to-layer="1405" to-port="0" />
		<edge from-layer="1401" from-port="0" to-layer="1405" to-port="1" />
		<edge from-layer="1402" from-port="0" to-layer="1405" to-port="2" />
		<edge from-layer="1403" from-port="0" to-layer="1405" to-port="3" />
		<edge from-layer="1404" from-port="0" to-layer="1405" to-port="4" />
		<edge from-layer="1405" from-port="5" to-layer="1410" to-port="0" />
		<edge from-layer="1406" from-port="0" to-layer="1407" to-port="0" />
		<edge from-layer="1407" from-port="1" to-layer="1409" to-port="0" />
		<edge from-layer="1408" from-port="0" to-layer="1409" to-port="1" />
		<edge from-layer="1409" from-port="2" to-layer="1410" to-port="1" />
		<edge from-layer="1410" from-port="2" to-layer="1412" to-port="0" />
		<edge from-layer="1411" from-port="0" to-layer="1412" to-port="1" />
		<edge from-layer="1412" from-port="2" to-layer="1413" to-port="0" />
		<edge from-layer="1413" from-port="2" to-layer="1415" to-port="0" />
		<edge from-layer="1414" from-port="0" to-layer="1415" to-port="1" />
		<edge from-layer="1415" from-port="2" to-layer="1417" to-port="0" />
		<edge from-layer="1416" from-port="0" to-layer="1417" to-port="1" />
		<edge from-layer="1417" from-port="2" to-layer="1419" to-port="0" />
		<edge from-layer="1418" from-port="0" to-layer="1419" to-port="1" />
		<edge from-layer="1419" from-port="2" to-layer="1421" to-port="0" />
		<edge from-layer="1419" from-port="2" to-layer="1449" to-port="1" />
		<edge from-layer="1420" from-port="0" to-layer="1421" to-port="1" />
		<edge from-layer="1421" from-port="2" to-layer="1426" to-port="0" />
		<edge from-layer="1422" from-port="0" to-layer="1426" to-port="1" />
		<edge from-layer="1423" from-port="0" to-layer="1426" to-port="2" />
		<edge from-layer="1424" from-port="0" to-layer="1426" to-port="3" />
		<edge from-layer="1425" from-port="0" to-layer="1426" to-port="4" />
		<edge from-layer="1426" from-port="5" to-layer="1431" to-port="0" />
		<edge from-layer="1427" from-port="0" to-layer="1428" to-port="0" />
		<edge from-layer="1428" from-port="1" to-layer="1430" to-port="0" />
		<edge from-layer="1429" from-port="0" to-layer="1430" to-port="1" />
		<edge from-layer="1430" from-port="2" to-layer="1431" to-port="1" />
		<edge from-layer="1431" from-port="2" to-layer="1433" to-port="0" />
		<edge from-layer="1432" from-port="0" to-layer="1433" to-port="1" />
		<edge from-layer="1433" from-port="2" to-layer="1434" to-port="0" />
		<edge from-layer="1434" from-port="1" to-layer="1436" to-port="0" />
		<edge from-layer="1435" from-port="0" to-layer="1436" to-port="1" />
		<edge from-layer="1436" from-port="2" to-layer="1441" to-port="0" />
		<edge from-layer="1437" from-port="0" to-layer="1441" to-port="1" />
		<edge from-layer="1438" from-port="0" to-layer="1441" to-port="2" />
		<edge from-layer="1439" from-port="0" to-layer="1441" to-port="3" />
		<edge from-layer="1440" from-port="0" to-layer="1441" to-port="4" />
		<edge from-layer="1441" from-port="5" to-layer="1446" to-port="0" />
		<edge from-layer="1442" from-port="0" to-layer="1443" to-port="0" />
		<edge from-layer="1443" from-port="1" to-layer="1445" to-port="0" />
		<edge from-layer="1444" from-port="0" to-layer="1445" to-port="1" />
		<edge from-layer="1445" from-port="2" to-layer="1446" to-port="1" />
		<edge from-layer="1446" from-port="2" to-layer="1448" to-port="0" />
		<edge from-layer="1447" from-port="0" to-layer="1448" to-port="1" />
		<edge from-layer="1448" from-port="2" to-layer="1449" to-port="0" />
		<edge from-layer="1449" from-port="2" to-layer="1451" to-port="0" />
		<edge from-layer="1450" from-port="0" to-layer="1451" to-port="1" />
		<edge from-layer="1451" from-port="2" to-layer="1453" to-port="0" />
		<edge from-layer="1452" from-port="0" to-layer="1453" to-port="1" />
		<edge from-layer="1453" from-port="2" to-layer="1455" to-port="0" />
		<edge from-layer="1454" from-port="0" to-layer="1455" to-port="1" />
		<edge from-layer="1455" from-port="2" to-layer="1456" to-port="0" />
	</edges>
	<rt_info>
		<Runtime_version value="2024.4.1-16618-643f23d1318-releases/2024/4" />
		<conversion_parameters>
			<framework value="pytorch" />
			<is_python_object value="True" />
		</conversion_parameters>
		<nncf>
			<friendly_names_were_updated value="True" />
			<quantization>
				<advanced_parameters value="{'overflow_fix': 'disable', 'quantize_outputs': False, 'inplace_statistics': True, 'disable_channel_alignment': True, 'disable_bias_correction': False, 'batchwise_statistics': None, 'activations_quantization_params': None, 'weights_quantization_params': None, 'activations_range_estimator_params': {'min': {'statistics_type': None, 'aggregator_type': None, 'clipping_value': None, 'quantile_outlier_prob': 0.0001}, 'max': {'statistics_type': None, 'aggregator_type': None, 'clipping_value': None, 'quantile_outlier_prob': 0.0001}}, 'weights_range_estimator_params': {'min': {'statistics_type': None, 'aggregator_type': None, 'clipping_value': None, 'quantile_outlier_prob': 0.0001}, 'max': {'statistics_type': None, 'aggregator_type': None, 'clipping_value': None, 'quantile_outlier_prob': 0.0001}}, 'bias_correction_params': {'apply_for_all_nodes': False, 'threshold': None}, 'smooth_quant_alphas': {'convolution': -1, 'matmul': 0.95}, 'smooth_quant_alpha': None, 'backend_params': {}}" />
				<fast_bias_correction value="True" />
				<ignored_scope>
					<types value="['GroupNormalization']" />
				</ignored_scope>
				<model_type value="transformer" />
				<preset value="mixed" />
				<subset_size value="300" />
				<target_device value="ANY" />
			</quantization>
		</nncf>
		<optimum>
			<optimum_intel_version value="1.20.0.dev0+b31524c" />
			<optimum_version value="1.23.0" />
			<pytorch_version value="2.5.0.dev20240807+cu121" />
			<transformers_version value="4.43.4" />
		</optimum>
	</rt_info>
</net>
